SpectralKAN/log/mlp_farmland.pth (torch, 32898 bytes, 12 tensors)

layer1.layers.0.base_weight f4 [16, 25]
000000 5c 4b f1 3a f9 70 35 3e 21 bf 4d be f2 17 25 be
       0.00184093 0.17718877 -0.20092441 -0.16122416
000010 42 7e c9 bd 51 95 64 bd 9e 69 2a be 9f 79 4b 3c
       -0.09838535 -0.05580646 -0.16641852 0.012419133
000020 2a f9 0f bc f1 55 5e 3d 7a 01 46 bd 78 12 d2 bd
       -0.008787433 0.05428118 -0.048341252 -0.10257429
000030 d8 13 72 be 50 a2 06 be 8a 71 e8 bd f8 db b0 3d
       -0.23640382 -0.13147855 -0.11349781 0.08635706
000040 28 b3 80 3d d0 c6 dd 3d d6 e2 48 be 75 a4 7f be
       0.06284171 0.10828936 -0.19617781 -0.24965079
000050 bf 2e fb bd 1a 96 e6 3d d5 f6 9b bd 45 da 17 3e
       -0.122647755 0.11259098 -0.07615439 0.14829357
000060 0e e6 19 3d 45 25 24 bd 8e 34 3f 3e c0 7c 94 be
       0.037572913 -0.040074605 0.18672392 -0.29001427
000070 36 c2 47 be 5c bb 04 be 84 75 7c be b0 bb 59 bd
       -0.1950768 -0.12962097 -0.24654204 -0.05315751
000080 17 7e b7 be 8f 69 15 be 3c 8f 4e be bb f2 70 be
       -0.35838386 -0.14591049 -0.20171827 -0.23530094
000090 9b 89 8c be f3 f6 b9 3c 32 8c 05 bb 14 b0 e3 bc
       -0.27448735 0.022700762 -0.0020377752 -0.027793922
0000a0 f6 06 5f 3c 7f f5 39 be 92 a4 5b bd dc 83 9e be
       0.013612499 -0.18160056 -0.053623743 -0.30959976
0000b0 48 0e bf be 43 85 c9 be d4 40 cf bc 8d 34 4b bc
       -0.37315583 -0.39359483 -0.025299467 -0.012402666
0000c0 1d 8f 28 be 9d 93 04 bd 3a 76 1c 3e ac 92 9b 3e
       -0.16460843 -0.032367337 0.15279475 0.3038534
0000d0 83 3d 79 3e 7a b1 7a 3e d1 b0 cd 3e 3f 6d df bd
       0.24339871 0.24481764 0.40173963 -0.10909509
0000e0 c6 b8 16 3e 03 0b 47 3d 84 d9 13 3e 71 6a 3d 3e
       0.14718923 0.048594486 0.14438444 0.18497635
0000f0 2b d2 04 3e 6c 83 aa 3e 3f 70 94 3e 20 23 e7 3e
       0.12970798 0.33303392 0.28991887 0.45143986
000100 5b 33 f8 3e fd c0 39 3e 12 1c 7f 3e 84 a9 b5 3e
       0.4847668 0.18140025 0.24913052 0.35480893
000110 dc 1b cf 3e c1 95 fc 3e 20 1b 94 3d 4f 61 76 3e
       0.40450943 0.49333003 0.07231736 0.24060558
000120 39 90 eb 3e d4 19 fe 3e 53 42 22 3f 61 1e 4c 3e
       0.4600847 0.4962908 0.6338245 0.19933464
000130 e0 36 05 3e 40 3e 45 be 10 5b ab 3c b9 58 03 be
       0.13009214 -0.19262028 0.020917445 -0.12826814
000140 9d 4f 8f be e7 59 f6 3c 7b 56 c3 3c a6 6a 2c be
       -0.27990428 0.030072166 0.023844948 -0.16837558
000150 f8 96 7f 3d 11 4a a0 bb cb 55 9f bd 7e 2b e7 bd
       0.062399834 -0.004891642 -0.077800356 -0.11287592
000160 ab cd d6 3d 1e 93 00 be 29 19 30 3e 8c 23 d1 3d
       0.10488447 -0.12556121 0.17197098 0.10211858
000170 a2 22 1f 3e 62 31 08 3d d7 43 b1 be e6 fc 9c be
       0.15540555 0.03325022 -0.3462207 -0.30661696
000180 b7 41 8f 3d b8 81 00 3d 05 64 0f be 12 48 c8 bc
       0.06994956 0.03137371 -0.14002998 -0.024448428
000190 85 3a 6d 3e 06 71 ee 3d 01 9e d9 ba 39 ee 88 3c
       0.23166855 0.11642651 -0.0016602875 0.016715156
0001a0 15 51 da bd d5 20 2a 3e ea 1f 9b 3d 82 dd 2b 3d
       -0.106599964 0.16614087 0.075744465 0.041959293
0001b0 8d d2 fe 3c 8f 94 ac 3d 86 1d 03 bd 78 35 78 3e
       0.031106258 0.08426773 -0.032010578 0.24239147
0001c0 54 52 12 bd 92 31 5d 3e 66 f7 5b 3e 5e 22 55 be
       -0.035723045 0.21600941 0.21481094 -0.20813891
0001d0 fd 80 c1 3c fb 7f 8b 3d 05 9c 17 3e 60 e5 90 3e
       0.023621077 0.0681152 0.1480561 0.283
0001e0 b2 2b a6 3e c2 dc e3 3d e5 92 00 bc 28 ef 1a 3e
       0.32455212 0.111260906 -0.007847522 0.15130293
0001f0 c1 d9 57 be 91 ac b8 bd e5 3b b3 bd 73 6e e5 bc
       -0.2107916 -0.090172894 -0.08751658 -0.028006768
000200 83 6b ac bc 0b 56 c6 bd 8f 35 e4 3d 2d d0 80 3e
       -0.02104736 -0.0968438 0.11143028 0.25158826
000210 6b 94 45 3d 37 08 88 3c 0d a8 35 3e 8a 8a 3b 3c
       0.048237246 0.01660548 0.17739888 0.0114466045
000220 0c ae e0 3d 7e 70 66 3d 66 80 78 3d 39 82 3f 3e
       0.10970697 0.056259625 0.060669325 0.1870202
000230 d1 64 0e 3e 71 64 39 3e 3d de 6f 3e 11 d1 b5 3d
       0.13905646 0.18104722 0.23424621 0.08877767
000240 4b 3e 0f 3d 8f aa 0a 3e 56 8e 5f 3e 13 57 96 3d
       0.034971517 0.13541625 0.2183164 0.07340827
000250 0a a7 71 bd f4 31 45 be f1 d7 fa be fc 26 03 bf
       -0.05899719 -0.19257337 -0.48992875 -0.5123136
000260 b8 e0 c9 be e1 c1 55 be 0f 85 4c be 35 ce 00 bf
       -0.3942926 -0.2087474 -0.19972633 -0.50314647
000270 15 d8 7c be 4a db 09 bf 83 73 b9 be e9 29 bf be
       -0.24691804 -0.53850234 -0.3622094 -0.37336662
000280 a2 df 75 be 5d 4b f3 be c9 e9 32 bf f5 32 1c bf
       -0.2401109 -0.47518435 -0.6988798 -0.61015254
000290 d6 00 d8 be aa 2d 9e be 61 2d e3 be d8 f7 9c be
       -0.42188138 -0.30894214 -0.4437056 -0.3065784
0002a0 12 cf ff be 12 67 cf be ac 70 5e be af f4 ef be
       -0.4996267 -0.40508324 -0.21722668 -0.46866366
0002b0 89 df 80 be 85 3c 75 be b9 57 1d bf 4a 97 5e 3e
       -0.25170544 -0.23948868 -0.6146198 0.217374
0002c0 60 d7 e4 3d d5 d0 14 bd b4 8c 69 3e 6e 40 bf bd
       0.11173892 -0.03633197 0.2280758 -0.09338461
0002d0 cb 51 17 3d 83 2b 94 bd 7b cc 0a 3e 70 a2 33 3e
       0.03694324 -0.07234862 0.13554566 0.17542434
0002e0 6d 4b 56 3e 9d 71 48 3e 84 c6 89 3d 61 7d e9 3d
       0.2092721 0.1957459 0.06727317 0.11400867
0002f0 3b ae 86 3c b1 fe 7f 3e 07 e1 b1 3e 0f 29 7c 3e
       0.016440501 0.24999501 0.34741995 0.24625038
000300 e1 76 39 bc 1a ab a1 3d f0 33 0e be 44 1b b7 bd
       -0.011319847 0.07893963 -0.13887 -0.089407474
000310 f9 73 36 3b 0f 1a 69 3e 47 16 54 3c b2 57 6a 3e
       0.0027840121 0.22763847 0.012944764 0.22885016
000320 22 7d 3d 3d cf 51 db 3d 38 7e 8c bd 18 85 85 bd
       0.046261914 0.10708963 -0.06860012 -0.06519526
000330 84 40 c3 bc 19 c8 96 3e 64 08 13 3e df 2e b8 3e
       -0.023834474 0.29449537 0.1435867 0.3597326
000340 1e e2 f8 3d fd b8 ad 3d db 6f f7 3c 99 c0 8c 3d
       0.121525034 0.08482549 0.030204704 0.068726726
000350 b7 e1 e2 3d 2d e5 f4 bb 20 f3 a5 3d d2 ac be bc
       0.11078208 -0.007473609 0.08103013 -0.023275767
000360 86 a5 c2 bd f7 6e 4d bd f4 99 8e 3e f7 0f 89 3d
       -0.09504227 -0.050154652 0.27851832 0.06692498
000370 29 50 58 3e 22 a3 93 3e e5 e8 1c 3e 4f 9c 72 3d
       0.21124329 0.28835398 0.15323217 0.0592311
000380 88 17 41 be 6e 9f 33 3e e9 81 0a be 7c 3a 68 3d
       -0.18856633 0.17541286 -0.1352612 0.0566964
000390 d1 0c f9 3c 03 07 bb 3d 8e 33 5d 3e 10 1a e6 3e
       0.03040162 0.09132197 0.21601698 0.4494176
0003a0 a4 06 88 3e 57 35 7d 3e db 5a 51 3e b6 57 65 bd
       0.26567566 0.24727379 0.20444815 -0.05599185
0003b0 1c ad 73 3e bf f5 e2 bc ca 98 09 bd 38 b0 23 3e
       0.23796505 -0.027705071 -0.033592977 0.15985191
0003c0 85 df c6 3c 46 67 6f 3e 19 da 81 3b a8 66 14 3e
       0.024276504 0.2337924 0.003962767 0.14492285
0003d0 63 81 c0 3e 53 25 ae 3d e9 ee 82 3e 6f 5a 82 bd
       0.37598714 0.08503213 0.255729 -0.06364905
0003e0 85 b0 81 3d 08 bd 71 bd 78 e7 17 be 10 00 85 3d
       0.063324966 -0.059018165 -0.14834392 0.064941525
0003f0 1b 14 fa 3d 3f 9f 88 bd e7 3c fc bd 55 7e 66 be
       0.12210866 -0.06670999 -0.12316304 -0.2250913

layer1.layers.0.spline_weight f4 [1, 25, 8]
000000 2c 70 c0 3b be be f4 3d 7a cc 06 bf 15 10 86 3d
       0.005872747 0.11950444 -0.52655756 0.06546036
000010 b1 00 05 3d 75 49 e5 be a7 a6 ce be b9 18 b1 ba
       0.032471363 -0.44782606 -0.4036152 -0.0013511396
000020 3a 0b cd 3a e2 ed ab bd 92 ec 8b 3e 8e 9b 72 bd
       0.0015643605 -0.08394982 0.27328926 -0.05923038
000030 3e 7d 37 bc c2 d3 d3 3e 2c 1d 13 bb ce 78 af 3a
       -0.011199294 0.41372496 -0.0022447808 0.0013387443
000040 8b 34 06 3a c9 c7 a7 bd c2 77 a4 3e c7 da fc bc
       0.0005119524 -0.08192403 0.32122618 -0.03086604
000050 5a b9 50 bc 10 8d bc 3e 6f 02 01 3f d9 54 15 bb
       -0.012739504 0.36826372 0.5039434 -0.002278617
000060 c5 9c b9 3b 50 43 f9 3d cf 8d 95 be 6f 9d 5f 3d
       0.0056644403 0.12171042 -0.29209754 0.0545935
000070 66 b7 ac bc 2a bf 93 be 54 96 6c 3d 57 8c 0c bb
       -0.021083545 -0.28856784 0.05776055 -0.0021445954
000080 06 00 8b 39 43 18 c3 bd 78 74 ba 3e 78 fc 22 bd
       0.00026512163 -0.09526112 0.36416984 -0.039791554
000090 03 e9 14 bd 07 6d ba 3e 99 6a d0 bd 9c 88 5b bb
       -0.03635503 0.36411306 -0.10176582 -0.0033498174
0000a0 ff 9b 3a ba c1 a9 01 3e 6a c4 19 be 67 1d c6 3d
       -0.0007118582 0.12662412 -0.15016332 0.09673577
0000b0 22 54 bd bd 9a 0a a5 be cf 53 06 bf 02 66 95 3b
       -0.09244563 -0.3223465 -0.5247163 0.0045592794
0000c0 a0 4b 64 3b 8c bf 14 bd 70 ec d9 3e 16 f3 8e 3d
       0.0034835115 -0.036315486 0.425632 0.06979959
0000d0 6a 4b eb bd 94 05 0c 3e 17 36 d3 3e 5e 73 45 3b
       -0.114889935 0.13674003 0.41252205 0.0030128579
0000e0 c2 0c 09 3b 44 dd b3 3d e9 93 57 be 9b 7f 88 3d
       0.0020912145 0.087824374 -0.21052517 0.06664964
0000f0 96 7f a8 bc cb 9c 5e be 8a c8 93 be 84 4f a5 bb
       -0.02056865 -0.217395 -0.28863937 -0.0050448794
000100 1b 64 2d bb 24 e8 62 bd 50 e2 40 3e ba 08 cb bd
       -0.0026457373 -0.055397168 0.18836331 -0.09913774
000110 dc 68 11 3d 8e 6d ac 3e b0 7c b3 bd 5f e0 05 bb
       0.035500392 0.33677334 -0.08764017 -0.0020427925
000120 00 22 78 3b dc 9e 65 bd e6 57 72 3e 39 8e 90 bd
       0.0037862062 -0.056059703 0.23666343 -0.07058377
000130 14 6b bb 3a 24 2a a4 3e 34 71 bf be e4 37 87 bb
       0.001429888 0.320634 -0.37391055 -0.0041265357
000140 f7 9c 38 bb 67 3f bb 3d ea 21 a3 be 6a 84 72 bd
       -0.002816973 0.091429524 -0.31861812 -0.05920831
000150 27 9b e8 3d 9a 17 b6 be 8c 03 01 bf 4d 95 d9 3a
       0.11357718 -0.35564882 -0.5039604 0.0016600281
000160 01 ec da ba ef b7 5a 3d 05 25 cb be 68 6b be bc
       -0.0016702415 0.05339807 -0.3967668 -0.023244575
000170 5e 3e af 3d a2 14 8a be 96 ad 46 bd a6 24 eb ba
       0.085568175 -0.26968867 -0.04850539 -0.0017939999
000180 96 bc b1 3b 60 a8 52 3e 59 03 38 be ee ca d0 3d
       0.0054240925 0.20572042 -0.17970027 0.10194956
000190 9e 81 c1 bc 3a 14 ce be ed c8 9b be bf e6 f1 ba
       -0.023621377 -0.40249807 -0.30426732 -0.0018455609
0001a0 a4 c0 e3 ba 95 79 eb 3c fa 5f 71 3e 14 7b 0f be
       -0.0017376137 0.028744498 0.23571768 -0.14011794
0001b0 c7 9c fd bc da 1c d7 3e 95 f2 b1 3e ec 6d b3 b9
       -0.030958546 0.420142 0.34755388 -0.0003422344
0001c0 c2 3a 0b ba a7 f6 8c bd 84 63 8b bb 38 91 22 be
       -0.0005311185 -0.06882983 -0.0042538065 -0.15875709
0001d0 83 a8 12 3e 67 6b e3 3e e3 3f ac be 2b 8a 78 b9
       0.14322095 0.4441788 -0.33642492 -0.00023702595
0001e0 87 f1 b7 3a a7 0e a4 bd 2f 21 ab 3e 46 62 3c 3e
       0.0014033773 -0.08010607 0.33423755 0.18396863
0001f0 14 b1 57 be 6e 51 56 bd 45 fb 42 3e d5 36 68 bb
       -0.21063644 -0.05232375 0.19041164 -0.0035433073
000200 79 13 90 3a 40 34 97 3e cd 6f bd be 58 65 83 be
       0.0010992131 0.2953205 -0.3699936 -0.25663257
000210 77 c7 8e 3e 7c 39 b5 3e 73 e9 2e bd 6f 23 07 3b
       0.27886555 0.3539542 -0.042703103 0.0020620485
000220 a8 39 94 ba 4f 43 28 be 87 1a 62 bd d1 5d 54 be
       -0.0011308687 -0.16431926 -0.05520108 -0.20738913
000230 b1 90 1f 3e d6 4b ce 3e 04 c6 9b bd 31 2e 0a ba
       0.15582539 0.40292233 -0.07606128 -0.0005271165
000240 da 28 cb ba 35 eb f3 bd 30 f0 7b 3e 86 b3 8b bd
       -0.0015499846 -0.119100966 0.24603343 -0.06821351
000250 c6 6b b0 bb c9 5b 8d 3e 66 93 34 be 67 a8 75 bb
       -0.0053839413 0.2760909 -0.17634353 -0.0037484409
000260 33 2e b7 3b 22 06 99 3c 57 a4 c2 be 0a e2 34 3d
       0.005590224 0.018679682 -0.38016006 0.04416088
000270 85 11 4c 3d 09 22 88 be 54 2f 05 bd 2f f7 cd 3a
       0.049821395 -0.26588467 -0.03251584 0.0015713925
000280 39 13 a2 ba 88 83 8d bd 99 a8 00 3f 15 a9 4c 3d
       -0.0012365348 -0.06909853 0.5025726 0.049965937
000290 20 ff ce bd 62 aa 86 3e 11 19 f1 3e 48 ca 2f 3b
       -0.10107255 0.26301867 0.47089437 0.002682345
0002a0 76 3f 10 ba 3f a0 e7 3c 20 20 b1 be 7b ac aa 3d
       -0.00055026205 0.028274653 -0.34594822 0.08333679
0002b0 ce 80 65 bc be 3d b6 be 2c d5 ac bd 63 55 64 bb
       -0.01400776 -0.3559398 -0.08439097 -0.0034840934
0002c0 90 fe 99 39 a8 40 bc bd 36 73 ac 3e 74 b8 e6 bb
       0.00029372098 -0.0919202 0.3368165 -0.0070410315
0002d0 06 4c 86 bd 74 f3 c8 3e bf 60 4a be 14 91 a6 ba
       -0.06557469 0.3924824 -0.19763468 -0.0012708032
0002e0 9f 03 c4 3a bd e7 df 3d d0 96 9c be f4 1f d8 3c
       0.0014954692 0.109328724 -0.3058381 0.026382424
0002f0 c1 02 4e 3d b7 00 bd be 39 f7 3a 3e e1 61 74 3a
       0.050295595 -0.36914608 0.1825837 0.00093224464
000300 d9 ea 87 3b a2 3c fa bd 67 a1 c7 be 88 3a bf 3d
       0.004147869 -0.12218596 -0.38990328 0.09337336
000310 df 4e de 3c f0 90 04 bf a1 76 10 be 05 4c cb 3b
       0.027137218 -0.5178366 -0.14107753 0.0062041306

layer1.layers.0.spline_scaler f4 [16, 25]
000000 63 fe 45 bf 97 e5 5b 3e 47 f9 1c 3f cb 36 db be
       -0.7734129 0.214743 0.6131787 -0.4281524
000010 2c 6f cc 3e 2f 89 b2 bd cd 76 aa 3e 18 38 4b be
       0.39928567 -0.08717572 0.33293763 -0.19845617
000020 89 55 b0 3e 98 06 97 3e 3d a7 01 bf e4 21 f8 be
       0.34440258 0.29497218 -0.5064581 -0.48463356
000030 68 f5 9d be d3 3b 83 3e 3f 91 7c bc 3a 68 90 3e
       -0.30851293 0.2563158 -0.015415489 0.2820452
000040 b3 1a 19 be a7 da 7b 3d 8b bf 9c 3e c5 97 0c be
       -0.14951591 0.06148782 0.30614886 -0.1372977
000050 29 e9 42 3f 50 cc 3b be 4c 7a a5 3e 63 87 e5 be
       0.76137024 -0.18339658 0.32319868 -0.44829854
000060 0a 2a e4 be bd d5 cc be a3 d5 ac 3e ee 17 7d 3e
       -0.44563323 -0.4000682 0.33756742 0.2471616
000070 b0 ef 75 be 4d ef 0c 3f 7b ff 93 bd 1a 25 74 3e
       -0.24017215 0.55052644 -0.072264634 0.23842278
000080 7e 6e 9c be 34 53 69 3e a0 b4 84 3e 9c 70 db be
       -0.3055305 0.22785646 0.25919056 -0.42859352
000090 95 fb b8 be 08 01 05 be 4d 6d 97 3e b2 13 2c 3e
       -0.36129442 -0.12988675 0.29575577 0.16804388
0000a0 15 2d f8 3d ce c8 b0 be 0e 12 2c be f9 de ac 3e
       0.12117974 -0.34528202 -0.16803762 0.33763865
0000b0 03 a1 23 be fb 2d 38 3f 5e 6d e4 be 3f 54 0f 3f
       -0.1597939 0.7194516 -0.4461469 0.55987924
0000c0 14 d1 fa bd 05 4f 6b be 29 c5 93 be 7f 19 24 bd
       -0.1224691 -0.22979362 -0.2886136 -0.040063377
0000d0 08 b4 00 3e 24 3d 9f 3b 44 13 50 3e 24 1a 15 be
       0.12568676 0.0048595835 0.20319849 -0.14560753
0000e0 0d 55 28 3e 30 4b 6e be d6 5f 72 3e a1 e3 60 3e
       0.16438694 -0.2327087 0.23669371 0.21961834
0000f0 1a 3d 74 be f2 96 5c be fd 4c 8a be 25 d0 09 3e
       -0.23851433 -0.21541956 -0.27011862 0.13458307
000100 ae 95 05 3f ef 17 71 3c 47 a7 c8 3e 9c f8 d2 3e
       0.5218152 0.014715179 0.39190122 0.412053
000110 61 f8 cb 3e 79 87 1d be 52 ab 5c 3e 00 87 36 be
       0.39837936 -0.1538371 0.21549729 -0.17824936
000120 dc 8d cd 3e bb db e8 be 49 70 07 bf 26 fe 39 bf
       0.40147293 -0.4548014 -0.5290571 -0.72653425
000130 d0 95 16 3f 8a d3 c2 3e e1 a2 f6 be 49 bd b3 3e
       0.58822346 0.38052016 -0.48171142 0.3510535
000140 84 e3 19 3d 38 e7 d7 3e 0a 97 c6 bd c1 33 7e 3e
       0.03757049 0.42168593 -0.09696777 0.2482443
000150 01 14 bd 3e a3 24 b6 be 3a a7 e2 be 7f 4b df be
       0.36929324 -0.35574827 -0.4426821 -0.43612286
000160 80 04 4b 3c a4 d6 69 3e ed 20 2a bd 50 72 6d bd
       0.01239121 0.22835785 -0.041535307 -0.057970345
000170 d6 80 41 3e 49 2f 2a 3e 47 4e bc be be 22 47 3f
       0.18896803 0.166196 -0.3677847 0.7778739
000180 b2 56 d6 be 07 c2 0d 3f 09 5d f4 be 43 ff f7 be
       -0.41863018 0.5537419 -0.4772723 -0.48436937
000190 be c9 3c 3f d5 81 0d bf 2f 9d 8f be 79 b4 44 3e
       0.73745334 -0.5527623 -0.2804961 0.1920947
0001a0 72 ae 14 bf 3a 6b 69 bd 04 a9 cb be c6 e9 b3 3e
       -0.5807868 -0.056987025 -0.39777386 0.35139292
0001b0 b0 48 aa be e1 78 80 be 77 17 a6 3e c6 87 c1 3e
       -0.3325858 -0.25092223 0.32439777 0.377989
0001c0 59 09 da 3e f9 82 b9 be ff dd 47 bd 81 5b 94 3d
       0.42585257 -0.36232737 -0.048795696 0.072440155
0001d0 06 67 0c 3e 5f d7 b8 3d bf 7f 76 be 4b 7d e0 3e
       0.13711175 0.09025454 -0.24072169 0.4384559
0001e0 ba fb 54 bf c9 89 96 3e e0 d9 fd be 5d 60 e1 3e
       -0.83196604 0.29401997 -0.49580288 0.44018832
0001f0 b9 e9 0d 3f 82 4d 47 3f 03 51 fd be de 0c e8 be
       0.5543476 0.7785264 -0.4947587 -0.45322317
000200 b1 9c ee 3e 9c d5 e9 be 82 50 61 3e 1c ef 0e bf
       0.4660392 -0.45670784 0.22003368 -0.558336
000210 32 51 17 3e d7 81 7e be 58 e0 6a be 66 c4 00 3f
       0.14777067 -0.24854217 -0.22937143 0.5029968
000220 1d 67 c5 3e 26 4f e2 3d fb f1 c4 bd 29 50 1a bd
       0.38555232 0.110502526 -0.096164666 -0.037674103
000230 9c 99 14 bd 22 ed b8 3c 3e 23 4a 3d 4b 92 59 3c
       -0.036279306 0.022574011 0.049350016 0.013279508
000240 d8 3e 94 3e 55 3f 51 bf e0 9b ed 3e 7d 79 18 bf
       0.28954196 -0.8173726 0.46407986 -0.59560376
000250 47 b2 d4 3e 50 24 01 3f 7e 94 12 bc cd fd c9 bc
       0.41542265 0.50446033 -0.008946536 -0.024657154
000260 b8 e3 d1 be 31 e7 62 3e 6e ad 91 be 70 8c 8c 3e
       -0.40994048 0.22158505 -0.2845263 0.27450895
000270 d9 2e ac 3e 21 e8 d2 3e a9 37 e1 be 70 80 63 bd
       0.33629492 0.41192725 -0.43987778 -0.05554241
000280 c1 b2 9e bd 48 90 b9 be 44 d7 92 3e 63 3f cc be
       -0.07748938 -0.3624289 0.2867986 -0.3989211
000290 9f 2b 6d be 79 b7 64 3e 2c 97 b4 be d8 2c b9 be
       -0.23161171 0.22335614 -0.35271585 -0.36167026
0002a0 82 6a 0e be 79 80 ae 3e fa d6 8c 3e c4 c1 78 3e
       -0.13907817 0.34082392 0.27507764 0.24292666
0002b0 4c 4b 11 be 36 57 11 bd 88 10 23 3e de 21 f3 be
       -0.1418888 -0.03548356 0.15924275 -0.47486776
0002c0 e1 ae 06 3f f3 57 5f 3e 87 70 f4 bd f6 94 43 3e
       0.52610594 0.21810894 -0.119355254 0.19099793
0002d0 16 74 67 be be 31 e3 3e fa 27 3c be 1a 62 8c 3e
       -0.22602877 0.44373888 -0.18374625 0.27418596
0002e0 0c 5c b5 3d dc ba bd bd de 67 8e be 13 91 df be
       0.08855447 -0.09264156 -0.2781362 -0.4366537
0002f0 f3 e7 52 3e af d6 07 3e 5a f6 50 be 43 d3 bd 3d
       0.20596294 0.13265489 -0.20406476 0.092688106
000300 1e f6 c5 3e 6a 9c 4d 3d 2a 42 84 bd 51 f8 27 3f
       0.38664335 0.050197996 -0.06457932 0.65613276
000310 90 46 35 be 86 91 7c 3e 9b 7c 8e be e2 0b f4 be
       -0.17702699 0.24664888 -0.2782944 -0.47665316
000320 5b 0b ed 3e 89 f9 ef be ba 3d 98 be 5f 89 fc 3e
       0.46297726 -0.46870068 -0.29734594 0.49323556
000330 28 81 c6 be 67 94 c9 3d 0b 4f 03 bf ee df a5 3e
       -0.38770413 0.098427586 -0.51292485 0.32397407
000340 61 d1 a4 be db cc ea be 31 c5 ca 3e 67 56 09 3f
       -0.32190993 -0.45859417 0.3960357 0.53647465
000350 bf 0a cf 3d 91 0e ca bc 60 b7 bc b9 1a 37 7d be
       0.101094715 -0.024665149 -0.0003599478 -0.24728051
000360 97 cf db 3d ef 8b c3 3d 85 31 ad be 13 48 60 3e
       0.10732954 0.095481746 -0.33826843 0.21902494
000370 5e 41 10 bf 09 0b 1e 3e ac 1e af be f7 c2 f3 3e
       -0.5634974 0.15433897 -0.34203088 0.47609684
000380 be 2e 18 3f 3d cd 1a 3f 2c 15 bc be f9 72 27 bf
       0.5944632 0.6046942 -0.36734903 -0.6540981
000390 25 52 1b 3f c7 ac 33 bf 18 64 c3 bd 8d 72 cb be
       0.6067222 -0.7018551 -0.09540576 -0.39735833
0003a0 cc 98 7b 3e ad 9d 99 be ca 10 01 bf 52 e5 bf 3e
       0.24570006 -0.3000311 -0.50416243 0.37479645
0003b0 59 75 e3 3e c9 ea 1a 3e bb 55 74 be a9 ff ae bd
       0.44425467 0.15128626 -0.23860829 -0.08544857
0003c0 b6 ba f5 bd 63 d8 55 3e ca 88 61 3d 2a 13 3a be
       -0.11998503 0.20883326 0.055062093 -0.18171373
0003d0 46 6a 82 3e 4a 2f 55 bf 7c ba 90 3e 2a 08 32 bf
       0.25471705 -0.8327528 0.28267276 -0.6954371
0003e0 5e f5 d7 3e a7 d1 03 3f 70 ed e7 be 32 bb 92 3e
       0.42179388 0.5149178 -0.45298338 0.28658444
0003f0 67 ae 10 3f 22 46 e1 be 1a 3e b4 3e 80 8e 24 3e
       0.56516117 -0.4399882 0.3520363 0.16069984

layer1.layers.0.grid f4 [25, 12]
000000 cd cc 0c c0 66 66 e6 bf 33 33 b3 bf 00 00 80 bf
       -2.2 -1.8 -1.4 -1.0
000010 9a 99 19 bf cc cc 4c be d0 cc 4c 3e 9a 99 19 3f
       -0.6 -0.19999999 0.20000005 0.6
000020 00 00 80 3f 34 33 b3 3f 66 66 e6 3f cd cc 0c 40
       1.0 1.4000001 1.8 2.2
000030 cd cc 0c c0 66 66 e6 bf 33 33 b3 bf 00 00 80 bf
       -2.2 -1.8 -1.4 -1.0
000040 9a 99 19 bf cc cc 4c be d0 cc 4c 3e 9a 99 19 3f
       -0.6 -0.19999999 0.20000005 0.6
000050 00 00 80 3f 34 33 b3 3f 66 66 e6 3f cd cc 0c 40
       1.0 1.4000001 1.8 2.2
000060 cd cc 0c c0 66 66 e6 bf 33 33 b3 bf 00 00 80 bf
       -2.2 -1.8 -1.4 -1.0
000070 9a 99 19 bf cc cc 4c be d0 cc 4c 3e 9a 99 19 3f
       -0.6 -0.19999999 0.20000005 0.6
000080 00 00 80 3f 34 33 b3 3f 66 66 e6 3f cd cc 0c 40
       1.0 1.4000001 1.8 2.2
000090 cd cc 0c c0 66 66 e6 bf 33 33 b3 bf 00 00 80 bf
       -2.2 -1.8 -1.4 -1.0
0000a0 9a 99 19 bf cc cc 4c be d0 cc 4c 3e 9a 99 19 3f
       -0.6 -0.19999999 0.20000005 0.6
0000b0 00 00 80 3f 34 33 b3 3f 66 66 e6 3f cd cc 0c 40
       1.0 1.4000001 1.8 2.2
0000c0 cd cc 0c c0 66 66 e6 bf 33 33 b3 bf 00 00 80 bf
       -2.2 -1.8 -1.4 -1.0
0000d0 9a 99 19 bf cc cc 4c be d0 cc 4c 3e 9a 99 19 3f
       -0.6 -0.19999999 0.20000005 0.6
0000e0 00 00 80 3f 34 33 b3 3f 66 66 e6 3f cd cc 0c 40
       1.0 1.4000001 1.8 2.2
0000f0 cd cc 0c c0 66 66 e6 bf 33 33 b3 bf 00 00 80 bf
       -2.2 -1.8 -1.4 -1.0
000100 9a 99 19 bf cc cc 4c be d0 cc 4c 3e 9a 99 19 3f
       -0.6 -0.19999999 0.20000005 0.6
000110 00 00 80 3f 34 33 b3 3f 66 66 e6 3f cd cc 0c 40
       1.0 1.4000001 1.8 2.2
000120 cd cc 0c c0 66 66 e6 bf 33 33 b3 bf 00 00 80 bf
       -2.2 -1.8 -1.4 -1.0
000130 9a 99 19 bf cc cc 4c be d0 cc 4c 3e 9a 99 19 3f
       -0.6 -0.19999999 0.20000005 0.6
000140 00 00 80 3f 34 33 b3 3f 66 66 e6 3f cd cc 0c 40
       1.0 1.4000001 1.8 2.2
000150 cd cc 0c c0 66 66 e6 bf 33 33 b3 bf 00 00 80 bf
       -2.2 -1.8 -1.4 -1.0
000160 9a 99 19 bf cc cc 4c be d0 cc 4c 3e 9a 99 19 3f
       -0.6 -0.19999999 0.20000005 0.6
000170 00 00 80 3f 34 33 b3 3f 66 66 e6 3f cd cc 0c 40
       1.0 1.4000001 1.8 2.2
000180 cd cc 0c c0 66 66 e6 bf 33 33 b3 bf 00 00 80 bf
       -2.2 -1.8 -1.4 -1.0
000190 9a 99 19 bf cc cc 4c be d0 cc 4c 3e 9a 99 19 3f
       -0.6 -0.19999999 0.20000005 0.6
0001a0 00 00 80 3f 34 33 b3 3f 66 66 e6 3f cd cc 0c 40
       1.0 1.4000001 1.8 2.2
0001b0 cd cc 0c c0 66 66 e6 bf 33 33 b3 bf 00 00 80 bf
       -2.2 -1.8 -1.4 -1.0
0001c0 9a 99 19 bf cc cc 4c be d0 cc 4c 3e 9a 99 19 3f
       -0.6 -0.19999999 0.20000005 0.6
0001d0 00 00 80 3f 34 33 b3 3f 66 66 e6 3f cd cc 0c 40
       1.0 1.4000001 1.8 2.2
0001e0 cd cc 0c c0 66 66 e6 bf 33 33 b3 bf 00 00 80 bf
       -2.2 -1.8 -1.4 -1.0
0001f0 9a 99 19 bf cc cc 4c be d0 cc 4c 3e 9a 99 19 3f
       -0.6 -0.19999999 0.20000005 0.6
000200 00 00 80 3f 34 33 b3 3f 66 66 e6 3f cd cc 0c 40
       1.0 1.4000001 1.8 2.2
000210 cd cc 0c c0 66 66 e6 bf 33 33 b3 bf 00 00 80 bf
       -2.2 -1.8 -1.4 -1.0
000220 9a 99 19 bf cc cc 4c be d0 cc 4c 3e 9a 99 19 3f
       -0.6 -0.19999999 0.20000005 0.6
000230 00 00 80 3f 34 33 b3 3f 66 66 e6 3f cd cc 0c 40
       1.0 1.4000001 1.8 2.2
000240 cd cc 0c c0 66 66 e6 bf 33 33 b3 bf 00 00 80 bf
       -2.2 -1.8 -1.4 -1.0
000250 9a 99 19 bf cc cc 4c be d0 cc 4c 3e 9a 99 19 3f
       -0.6 -0.19999999 0.20000005 0.6
000260 00 00 80 3f 34 33 b3 3f 66 66 e6 3f cd cc 0c 40
       1.0 1.4000001 1.8 2.2
000270 cd cc 0c c0 66 66 e6 bf 33 33 b3 bf 00 00 80 bf
       -2.2 -1.8 -1.4 -1.0
000280 9a 99 19 bf cc cc 4c be d0 cc 4c 3e 9a 99 19 3f
       -0.6 -0.19999999 0.20000005 0.6
000290 00 00 80 3f 34 33 b3 3f 66 66 e6 3f cd cc 0c 40
       1.0 1.4000001 1.8 2.2
0002a0 cd cc 0c c0 66 66 e6 bf 33 33 b3 bf 00 00 80 bf
       -2.2 -1.8 -1.4 -1.0
0002b0 9a 99 19 bf cc cc 4c be d0 cc 4c 3e 9a 99 19 3f
       -0.6 -0.19999999 0.20000005 0.6
0002c0 00 00 80 3f 34 33 b3 3f 66 66 e6 3f cd cc 0c 40
       1.0 1.4000001 1.8 2.2
0002d0 cd cc 0c c0 66 66 e6 bf 33 33 b3 bf 00 00 80 bf
       -2.2 -1.8 -1.4 -1.0
0002e0 9a 99 19 bf cc cc 4c be d0 cc 4c 3e 9a 99 19 3f
       -0.6 -0.19999999 0.20000005 0.6
0002f0 00 00 80 3f 34 33 b3 3f 66 66 e6 3f cd cc 0c 40
       1.0 1.4000001 1.8 2.2
000300 cd cc 0c c0 66 66 e6 bf 33 33 b3 bf 00 00 80 bf
       -2.2 -1.8 -1.4 -1.0
000310 9a 99 19 bf cc cc 4c be d0 cc 4c 3e 9a 99 19 3f
       -0.6 -0.19999999 0.20000005 0.6
000320 00 00 80 3f 34 33 b3 3f 66 66 e6 3f cd cc 0c 40
       1.0 1.4000001 1.8 2.2
000330 cd cc 0c c0 66 66 e6 bf 33 33 b3 bf 00 00 80 bf
       -2.2 -1.8 -1.4 -1.0
000340 9a 99 19 bf cc cc 4c be d0 cc 4c 3e 9a 99 19 3f
       -0.6 -0.19999999 0.20000005 0.6
000350 00 00 80 3f 34 33 b3 3f 66 66 e6 3f cd cc 0c 40
       1.0 1.4000001 1.8 2.2
000360 cd cc 0c c0 66 66 e6 bf 33 33 b3 bf 00 00 80 bf
       -2.2 -1.8 -1.4 -1.0
000370 9a 99 19 bf cc cc 4c be d0 cc 4c 3e 9a 99 19 3f
       -0.6 -0.19999999 0.20000005 0.6
000380 00 00 80 3f 34 33 b3 3f 66 66 e6 3f cd cc 0c 40
       1.0 1.4000001 1.8 2.2
000390 cd cc 0c c0 66 66 e6 bf 33 33 b3 bf 00 00 80 bf
       -2.2 -1.8 -1.4 -1.0
0003a0 9a 99 19 bf cc cc 4c be d0 cc 4c 3e 9a 99 19 3f
       -0.6 -0.19999999 0.20000005 0.6
0003b0 00 00 80 3f 34 33 b3 3f 66 66 e6 3f cd cc 0c 40
       1.0 1.4000001 1.8 2.2
0003c0 cd cc 0c c0 66 66 e6 bf 33 33 b3 bf 00 00 80 bf
       -2.2 -1.8 -1.4 -1.0
0003d0 9a 99 19 bf cc cc 4c be d0 cc 4c 3e 9a 99 19 3f
       -0.6 -0.19999999 0.20000005 0.6
0003e0 00 00 80 3f 34 33 b3 3f 66 66 e6 3f cd cc 0c 40
       1.0 1.4000001 1.8 2.2
0003f0 cd cc 0c c0 66 66 e6 bf 33 33 b3 bf 00 00 80 bf
       -2.2 -1.8 -1.4 -1.0

layer1.layers.1.base_weight f4 [1, 16]
000000 ab f7 ef be 8f 95 b3 be e9 2a b6 be e7 4b 0d bf
       -0.46868643 -0.35075042 -0.35579613 -0.5519394
000010 b6 b8 ff 3e 6c 20 fc 3e 45 80 6d bd e8 28 c5 be
       0.4994561 0.49243486 -0.057983655 -0.38507771
000020 a1 d6 d8 3e e3 ff ac 3e 51 12 01 bf 5b f3 c1 3e
       0.4235125 0.33788976 -0.50418574 0.37880978
000030 f3 a6 14 3f 00 0f cf be f7 93 08 bf fa f2 9b bd
       0.58067244 -0.40441132 -0.53350776 -0.076147035

layer1.layers.1.spline_weight f4 [1, 16, 8]
000000 a6 07 39 3b f9 4e a3 3d 04 8c ae 3e 9d 96 95 3d
       0.0028233319 0.07974047 0.34091198 0.07304118
000010 7c 16 12 be 2c bc fa bd de 39 6d 3e 6b 97 b3 3e
       -0.1426639 -0.12242922 0.23166606 0.3507646
000020 bd 07 e2 ba 7c 68 7e 3e de 4f 20 3e 5d cb 57 3d
       -0.0017244738 0.24844545 0.15655467 0.052684177
000030 73 4c c7 bd 1c 54 23 be 4f 70 2f 3e 6d 45 b6 3e
       -0.097313784 -0.15950054 0.17132686 0.35599843
000040 06 9c 0c bf 8b f0 fc 3a 40 ed ab 3e 3e 2b 1e be
       -0.5492557 0.0019297762 0.33579445 -0.15446183
000050 01 aa 61 bd 6d d9 b5 3e ab 5f bc 3e 8e ac 21 bf
       -0.05509377 0.35517445 0.3679174 -0.6315392
000060 63 5a 77 3b 64 31 9b bd 0d 3b d7 be 6c 84 aa bd
       0.0037743084 -0.0757778 -0.4203724 -0.08326039
000070 99 ae 18 3e 97 e0 d8 3d 94 44 52 be 31 8d 95 be
       0.14910354 0.10589712 -0.20533973 -0.29209283
000080 ae 97 dd be 09 f1 5b be b3 37 03 3e db c1 3a 3e
       -0.43279785 -0.21478666 0.12814216 0.18238012
000090 28 f0 b0 bd 3e 90 b3 be a6 35 e0 bb 72 0c ad ba
       -0.08639556 -0.35070986 -0.006842333 -0.0013202562
0000a0 c4 39 a5 be 3b 6f 49 be 5f af 46 3e d3 2a cf 3d
       -0.32270634 -0.19671337 0.19402836 0.1011559
0000b0 fc b3 7f bd f0 8c 85 be 38 cf c2 3c de c1 eb ba
       -0.062427506 -0.2608409 0.02378045 -0.0017986854
0000c0 2c 9e 35 3e 7b d3 9e be 20 06 bd be 3f 2d 07 3e
       0.17736119 -0.31020722 -0.36918736 0.13200854
0000d0 97 fa 14 3e 72 30 c4 be 82 f3 98 bc d7 19 af 3e
       0.14548717 -0.3831821 -0.018670801 0.34199402
0000e0 99 12 0d 3b 78 ec db be bc 24 49 bd 60 0e 89 3d
       0.0021525978 -0.4295385 -0.0491073 0.06692195
0000f0 44 aa 90 bd bf a6 8c be ef 9f 10 3f c1 1a de 3e
       -0.070637256 -0.27470967 0.5649404 0.43379787
000100 bf c1 d8 3e 47 a5 66 3e 7c eb 4a be c2 ef 05 be
       0.42335317 0.22523986 -0.19816393 -0.13079742
000110 91 a5 94 3d e8 de 54 3e 71 16 81 3e 39 c8 0c bb
       0.07258142 0.20788157 0.25212434 -0.0021481647
000120 0f b7 e6 3e 72 12 59 3e f1 17 87 bc c5 42 19 be
       0.45061538 0.21198443 -0.016490908 -0.14966877
000130 70 78 bc 3d c5 7e 8f 3e 8b 43 98 3e 4a 05 8f ba
       0.09202659 0.28026405 0.2973903 -0.001091161
000140 f0 cb c0 3a cc 7e e5 be e3 61 81 3e 4b 5c a2 3d
       0.0014709216 -0.448233 0.25269994 0.0792776
000150 58 5c 01 be 96 15 33 be 06 dd 44 3e 73 81 7a 3e
       -0.12632883 -0.17488703 0.19224939 0.24463443
000160 57 61 d1 be 73 a3 5b be ef 98 ea 3d c5 f0 ee 3d
       -0.40894577 -0.2144907 0.11454951 0.11667017
000170 f9 22 9b bd f6 27 79 be 6f 6a a8 be 97 bd a8 ba
       -0.0757503 -0.2433165 -0.32893702 -0.0012873885
000180 82 e4 de 3e a3 bb 47 3e 7f 20 e8 bd 7f 46 e7 bd
       0.43533713 0.19505171 -0.11334323 -0.11292743
000190 3a 5f 52 3d 4a f3 88 3e 19 c8 3c 3e 02 e7 74 3b
       0.051360346 0.26748115 0.18435706 0.0037369137
0001a0 27 3e 8f be 47 4f 5b 3e 7f 0b bb 3e f0 ce 56 be
       -0.27977106 0.2141696 0.36532208 -0.20977378
0001b0 62 30 36 be 03 0f c7 3e f6 06 93 3e 44 a1 67 3e
       -0.17791894 0.3887864 0.28716248 0.22620112
0001c0 cb 59 87 ba 06 0f 80 be 24 dc 46 be f0 67 24 bd
       -0.0010326443 -0.25011462 -0.19419914 -0.040138185
0001d0 e6 ef 9e 3d 88 70 10 3e a2 79 48 be 39 36 a2 be
       0.07760601 0.14105427 -0.19577649 -0.31681994
0001e0 1f 03 b1 be 6a ae 4b bd 22 2b a7 3e ad 45 15 be
       -0.34572694 -0.04972688 0.32650095 -0.1457736
0001f0 d7 c1 8d bb 7e 97 9c 3e f3 1b 90 3e 34 67 04 bf
       -0.004326086 0.3058433 0.28146324 -0.51719975

layer1.layers.1.spline_scaler f4 [1, 16]
000000 f7 83 f1 3e d9 49 f4 3e 90 7e 07 bf 45 af 28 bf
       0.47170994 0.4771259 -0.52927494 -0.6589244
000010 fd e2 fe be 20 50 1a bf b9 00 02 3f 6f 4c d4 3e
       -0.49782553 -0.6027851 0.5078235 0.41464564
000020 6c b9 a1 3e 36 fb ba 3e 4d 5f dd 3e f5 94 01 bf
       0.31586778 0.36519784 0.4323677 -0.50617915
000030 cd 7f 03 3f 9a 09 31 bf 7a 47 d4 be 75 35 e4 be
       0.51366884 -0.69155276 -0.41460782 -0.44572034

layer1.layers.1.grid f4 [16, 12]
000000 cd cc 0c c0 66 66 e6 bf 33 33 b3 bf 00 00 80 bf
       -2.2 -1.8 -1.4 -1.0
000010 9a 99 19 bf cc cc 4c be d0 cc 4c 3e 9a 99 19 3f
       -0.6 -0.19999999 0.20000005 0.6
000020 00 00 80 3f 34 33 b3 3f 66 66 e6 3f cd cc 0c 40
       1.0 1.4000001 1.8 2.2
000030 cd cc 0c c0 66 66 e6 bf 33 33 b3 bf 00 00 80 bf
       -2.2 -1.8 -1.4 -1.0
000040 9a 99 19 bf cc cc 4c be d0 cc 4c 3e 9a 99 19 3f
       -0.6 -0.19999999 0.20000005 0.6
000050 00 00 80 3f 34 33 b3 3f 66 66 e6 3f cd cc 0c 40
       1.0 1.4000001 1.8 2.2
000060 cd cc 0c c0 66 66 e6 bf 33 33 b3 bf 00 00 80 bf
       -2.2 -1.8 -1.4 -1.0
000070 9a 99 19 bf cc cc 4c be d0 cc 4c 3e 9a 99 19 3f
       -0.6 -0.19999999 0.20000005 0.6
000080 00 00 80 3f 34 33 b3 3f 66 66 e6 3f cd cc 0c 40
       1.0 1.4000001 1.8 2.2
000090 cd cc 0c c0 66 66 e6 bf 33 33 b3 bf 00 00 80 bf
       -2.2 -1.8 -1.4 -1.0
0000a0 9a 99 19 bf cc cc 4c be d0 cc 4c 3e 9a 99 19 3f
       -0.6 -0.19999999 0.20000005 0.6
0000b0 00 00 80 3f 34 33 b3 3f 66 66 e6 3f cd cc 0c 40
       1.0 1.4000001 1.8 2.2
0000c0 cd cc 0c c0 66 66 e6 bf 33 33 b3 bf 00 00 80 bf
       -2.2 -1.8 -1.4 -1.0
0000d0 9a 99 19 bf cc cc 4c be d0 cc 4c 3e 9a 99 19 3f
       -0.6 -0.19999999 0.20000005 0.6
0000e0 00 00 80 3f 34 33 b3 3f 66 66 e6 3f cd cc 0c 40
       1.0 1.4000001 1.8 2.2
0000f0 cd cc 0c c0 66 66 e6 bf 33 33 b3 bf 00 00 80 bf
       -2.2 -1.8 -1.4 -1.0
000100 9a 99 19 bf cc cc 4c be d0 cc 4c 3e 9a 99 19 3f
       -0.6 -0.19999999 0.20000005 0.6
000110 00 00 80 3f 34 33 b3 3f 66 66 e6 3f cd cc 0c 40
       1.0 1.4000001 1.8 2.2
000120 cd cc 0c c0 66 66 e6 bf 33 33 b3 bf 00 00 80 bf
       -2.2 -1.8 -1.4 -1.0
000130 9a 99 19 bf cc cc 4c be d0 cc 4c 3e 9a 99 19 3f
       -0.6 -0.19999999 0.20000005 0.6
000140 00 00 80 3f 34 33 b3 3f 66 66 e6 3f cd cc 0c 40
       1.0 1.4000001 1.8 2.2
000150 cd cc 0c c0 66 66 e6 bf 33 33 b3 bf 00 00 80 bf
       -2.2 -1.8 -1.4 -1.0
000160 9a 99 19 bf cc cc 4c be d0 cc 4c 3e 9a 99 19 3f
       -0.6 -0.19999999 0.20000005 0.6
000170 00 00 80 3f 34 33 b3 3f 66 66 e6 3f cd cc 0c 40
       1.0 1.4000001 1.8 2.2
000180 cd cc 0c c0 66 66 e6 bf 33 33 b3 bf 00 00 80 bf
       -2.2 -1.8 -1.4 -1.0
000190 9a 99 19 bf cc cc 4c be d0 cc 4c 3e 9a 99 19 3f
       -0.6 -0.19999999 0.20000005 0.6
0001a0 00 00 80 3f 34 33 b3 3f 66 66 e6 3f cd cc 0c 40
       1.0 1.4000001 1.8 2.2
0001b0 cd cc 0c c0 66 66 e6 bf 33 33 b3 bf 00 00 80 bf
       -2.2 -1.8 -1.4 -1.0
0001c0 9a 99 19 bf cc cc 4c be d0 cc 4c 3e 9a 99 19 3f
       -0.6 -0.19999999 0.20000005 0.6
0001d0 00 00 80 3f 34 33 b3 3f 66 66 e6 3f cd cc 0c 40
       1.0 1.4000001 1.8 2.2
0001e0 cd cc 0c c0 66 66 e6 bf 33 33 b3 bf 00 00 80 bf
       -2.2 -1.8 -1.4 -1.0
0001f0 9a 99 19 bf cc cc 4c be d0 cc 4c 3e 9a 99 19 3f
       -0.6 -0.19999999 0.20000005 0.6
000200 00 00 80 3f 34 33 b3 3f 66 66 e6 3f cd cc 0c 40
       1.0 1.4000001 1.8 2.2
000210 cd cc 0c c0 66 66 e6 bf 33 33 b3 bf 00 00 80 bf
       -2.2 -1.8 -1.4 -1.0
000220 9a 99 19 bf cc cc 4c be d0 cc 4c 3e 9a 99 19 3f
       -0.6 -0.19999999 0.20000005 0.6
000230 00 00 80 3f 34 33 b3 3f 66 66 e6 3f cd cc 0c 40
       1.0 1.4000001 1.8 2.2
000240 cd cc 0c c0 66 66 e6 bf 33 33 b3 bf 00 00 80 bf
       -2.2 -1.8 -1.4 -1.0
000250 9a 99 19 bf cc cc 4c be d0 cc 4c 3e 9a 99 19 3f
       -0.6 -0.19999999 0.20000005 0.6
000260 00 00 80 3f 34 33 b3 3f 66 66 e6 3f cd cc 0c 40
       1.0 1.4000001 1.8 2.2
000270 cd cc 0c c0 66 66 e6 bf 33 33 b3 bf 00 00 80 bf
       -2.2 -1.8 -1.4 -1.0
000280 9a 99 19 bf cc cc 4c be d0 cc 4c 3e 9a 99 19 3f
       -0.6 -0.19999999 0.20000005 0.6
000290 00 00 80 3f 34 33 b3 3f 66 66 e6 3f cd cc 0c 40
       1.0 1.4000001 1.8 2.2
0002a0 cd cc 0c c0 66 66 e6 bf 33 33 b3 bf 00 00 80 bf
       -2.2 -1.8 -1.4 -1.0
0002b0 9a 99 19 bf cc cc 4c be d0 cc 4c 3e 9a 99 19 3f
       -0.6 -0.19999999 0.20000005 0.6
0002c0 00 00 80 3f 34 33 b3 3f 66 66 e6 3f cd cc 0c 40
       1.0 1.4000001 1.8 2.2
0002d0 cd cc 0c c0 66 66 e6 bf 33 33 b3 bf 00 00 80 bf
       -2.2 -1.8 -1.4 -1.0
0002e0 9a 99 19 bf cc cc 4c be d0 cc 4c 3e 9a 99 19 3f
       -0.6 -0.19999999 0.20000005 0.6
0002f0 00 00 80 3f 34 33 b3 3f 66 66 e6 3f cd cc 0c 40
       1.0 1.4000001 1.8 2.2

layer2.layers.0.base_weight f4 [2, 224]
000000 31 5d 2d 3e 56 b3 ae 3d af f7 98 3d 0a e8 60 3c
       0.16930081 0.08530299 0.07469117 0.013727197
000010 ab 88 0c 3e 94 cd 0b 3e 50 c6 33 3e 49 3e 48 3e
       0.1372401 0.1365264 0.17556119 0.1955501
000020 ca 4d 2a 3e f5 90 00 3e a1 c7 f7 3d b1 ce a3 3d
       0.16631237 0.12555297 0.12098623 0.07998408
000030 ab 52 be 3d 7b 81 1d 3e a5 95 9c 3d c5 c7 14 3e
       0.092931114 0.15381424 0.0764573 0.14529331
000040 89 b4 ca 3d 58 be 00 3e a0 e4 21 3e 7c 23 b4 3d
       0.098977156 0.1257261 0.1580987 0.087958306
000050 60 ea f3 3d 0a 24 76 3d 12 3a ad 3b f9 2a ed bc
       0.11909938 0.060092963 0.0052864635 -0.028951155
000060 57 45 35 bb 72 29 5e bd ee 3f 30 be e5 fc cc bd
       -0.0027659738 -0.054238744 -0.17211887 -0.10009173
000070 19 f7 56 be 5b ab 6f be 70 68 32 be 64 65 71 be
       -0.20992698 -0.2340521 -0.17422652 -0.23573834
000080 64 68 54 be 9e cb 99 be 7d 20 9a be a9 62 59 be
       -0.20742947 -0.3003816 -0.30102912 -0.21229042
000090 55 20 43 be f1 2a 20 3d cf 2b c8 3e e2 05 98 3e
       -0.19055302 0.039103452 0.39095923 0.29691988
0000a0 33 63 f9 3c 81 b0 36 be 72 64 60 be aa 9f 88 be
       0.03044281 -0.17840768 -0.21913317 -0.26684314
0000b0 55 b2 8c be a8 cb 6d be d7 70 99 be b0 52 80 be
       -0.27479807 -0.2322222 -0.29968902 -0.25063086
0000c0 6e 67 8e be 7c 6f 85 be fd 9e 4c be fe 30 9a be
       -0.27813286 -0.26061618 -0.19982524 -0.30115503
0000d0 4e 5d a0 be 5a 07 6f be 5c c5 86 be da b1 57 be
       -0.31321186 -0.23342648 -0.26322448 -0.21063939
0000e0 10 80 8d be 3d 37 77 be 45 60 29 be 78 27 f4 bd
       -0.27636766 -0.24142165 -0.1654063 -0.119215906
0000f0 42 d4 45 bd f4 0b a9 bb 0e e2 05 3e 7a 58 3e 3e
       -0.048298128 -0.0051588956 0.13074514 0.18588439
000100 62 e4 cb 3d e4 7a 9c 3d 86 25 8b 3d bc 42 93 bd
       0.0995567 0.07640627 0.067942664 -0.07190463
000110 71 7a 72 bc 01 2d e3 bd 4d 7a 55 bd 26 76 2a be
       -0.0147997 -0.11092568 -0.05211859 -0.16646633
000120 56 82 a9 bd a2 c5 40 be 09 25 33 be 0e 8d be bd
       -0.08276813 -0.18825391 -0.17494597 -0.09304248
000130 49 cd b0 3b e3 32 4d bd 46 e7 ac 3d 2a 21 73 3e
       0.0053955656 -0.050097357 0.084425494 0.2374312
000140 8d 59 76 3e cb 6f ab 3e aa 3c 62 3e 24 8f 88 3e
       0.24057598 0.3348373 0.22093454 0.26671708
000150 5d fc 78 3e 25 4d a9 3e ff 58 95 3e 9f cd 4f 3e
       0.24315019 0.3306667 0.2916946 0.20293282
000160 88 67 83 3e 19 3d 74 3e 57 d5 54 3e 2c 7e 5a 3e
       0.25664926 0.23851432 0.20784508 0.21337193
000170 ff 9d 7a 3e 5c 79 a2 3e 76 dc 51 3e 9a 70 44 3e
       0.24474333 0.31733215 0.20494255 0.19183579
000180 13 e7 6d 3e 71 29 80 3e 9d de 89 3e 6e b1 81 3e
       0.23232679 0.25031617 0.26927653 0.2533068
000190 22 59 72 3e 7e a7 5f 3e 57 82 7e 3e ad cf 67 3e
       0.23666814 0.21841237 0.24854408 0.22637816
0001a0 35 34 8c 3e fc f4 f0 3d cc b7 9c 3d a9 8d c2 bd
       0.2738358 0.11765477 0.07652244 -0.09499676
0001b0 12 9d 58 bd 3f 9e ab bb ec c3 ea 3d 74 bb b0 3d
       -0.05288417 -0.0052373703 0.114631504 0.08629504
0001c0 67 22 02 be 1b 99 0a be cc 24 23 be f9 e6 1e be
       -0.12708436 -0.13534968 -0.15932006 -0.15517797
0001d0 61 98 7e be 83 b5 9d be 70 83 4b be 17 69 87 be
       -0.24862815 -0.30802545 -0.19874358 -0.26447365
0001e0 85 49 31 be 6e d3 3d be 76 80 dd bd 13 72 35 bd
       -0.17313202 -0.18537685 -0.108155176 -0.044298243
0001f0 cc 7f 5f bc ae 4b e2 bd 05 bf 94 bd 22 b6 1f bd
       -0.013641309 -0.11049591 -0.072629966 -0.038992055
000200 07 a4 21 bd e0 43 a5 3d 25 9c be 3c 35 5e a1 bb
       -0.03946307 0.08069587 0.023267815 -0.0049245604
000210 72 00 95 3c d2 19 8b 3c 30 8b af 3d 06 0c f8 3a
       0.018188689 0.016980086 0.0857147 0.0018924482
000220 c5 f3 24 bb d9 33 e9 bb d6 45 ab 3d bd 79 a0 3d
       -0.0025169712 -0.0071167764 0.083629295 0.0783572
000230 d1 90 25 bc e1 8e 31 3d a2 c3 92 3d 3c c2 de 3c
       -0.010105328 0.04334915 0.0716622 0.027192228
000240 18 44 9c bb d1 b1 4f bb 1d c3 08 bd c9 0d 74 bb
       -0.0047688596 -0.003169168 -0.0333892 -0.0037239662
000250 39 10 d4 bd 7e 2d 48 bd 95 a7 86 bd 2c a9 45 be
       -0.10354657 -0.04887151 -0.065749325 -0.19302815
000260 a7 70 3f be 6e 48 21 3c 54 7e 39 be 40 e0 e6 bc
       -0.18695317 0.009843929 -0.18114597 -0.028183103
000270 5c 1e 4e 3e 6a 41 e9 bc 06 61 ec 3c d7 54 8a bd
       0.20128769 -0.028473575 0.028854858 -0.06754463
000280 01 7a 8e bd 8a 03 53 be 3c 10 11 bd ef 30 8d 3e
       -0.06956864 -0.20606819 -0.035415873 0.27576396
000290 b7 ea f7 bd b1 fc 55 bd 98 91 04 be 7e 0a 9a be
       -0.12105315 -0.05224294 -0.12946165 -0.3008613
0002a0 c3 e4 a9 be da fc 9e be d7 fd 0c be 0b be 41 be
       -0.33182344 -0.31052285 -0.13768707 -0.18920152
0002b0 7a d5 08 be 76 02 f6 bd 64 1c 1a be 56 e4 52 be
       -0.13362685 -0.12012188 -0.15049893 -0.20594916
0002c0 50 2a d3 bd 12 28 e8 bd 23 08 b3 bd 86 c9 4d be
       -0.10310805 -0.11335768 -0.08741786 -0.20096406
0002d0 a3 06 a9 bd 53 50 71 bd 1b 85 3b be 69 5c ec bd
       -0.08253219 -0.058914494 -0.18312494 -0.11541063
0002e0 0e 20 83 bd c4 51 25 be 62 d2 b8 bd 19 26 ab bd
       -0.06402598 -0.16144472 -0.09024502 -0.08356876
0002f0 ca 0b 9e bd ec 88 52 bc 5d 73 73 bc 80 8d a3 bb
       -0.07717092 -0.0128500275 -0.014859048 -0.0049912333
000300 79 78 6e bd 49 80 8d 3c 16 e0 bf bd f2 c9 89 bd
       -0.05822036 0.017273085 -0.09368913 -0.06727971
000310 7d 2a 3b bd 6d 27 4f bd f8 d2 f7 3c 9e 25 f8 ba
       -0.045694817 -0.05057471 0.030251965 -0.0018932109
000320 21 b8 19 3c 41 2a 6c 3c 3d 86 a6 bd 18 db 16 bd
       0.009382279 0.014414371 -0.08131073 -0.036830038
000330 13 8c 7f bc 47 b8 85 bb a6 4d 3c 3c b9 b4 53 bd
       -0.015597361 -0.0040808055 0.011493122 -0.051686022
000340 eb 7f 41 bd 52 9d ec 3c 44 b2 4a bd a3 b7 a6 bd
       -0.047241133 0.02888361 -0.049486414 -0.08140495
000350 8f 12 da 3b 59 6a 45 3c c5 c2 93 bd b2 7a a9 bd
       0.0066550444 0.012049281 -0.07214884 -0.082753554
000360 e4 c1 ba bd 69 93 cc bd cb 6b 7a bd 93 db a9 bd
       -0.09119013 -0.09989054 -0.061137956 -0.082938336
000370 fa b7 dd bc a3 59 3a be f5 48 39 3c fa 2e 48 bc
       -0.027065266 -0.18198256 0.011308898 -0.012218231
000380 42 a0 a4 bd 9c 03 c9 bc 5e fd 77 bb f5 5c 08 bd
       -0.08038379 -0.024537854 -0.0037840228 -0.033291776
000390 8f fc 12 be 57 4f 44 be 39 8f 55 be 8a 87 14 be
       -0.14354156 -0.19170891 -0.20855416 -0.14504829
0003a0 56 69 94 bd eb 61 13 be 37 fc 02 be f7 88 2e be
       -0.07246654 -0.14392821 -0.12791525 -0.17044435
0003b0 e9 ce c5 bd 51 56 8b bd ff 2e 2d be 0b 77 1a be
       -0.096586056 -0.06803573 -0.16912459 -0.15084474
0003c0 14 9c 9b bd ae 7a 00 be f5 b3 24 be f7 9f 0c be
       -0.07598129 -0.12546799 -0.16084273 -0.13732897
0003d0 14 0b 05 be 24 82 e8 bd 5d fc 96 bd 64 df 73 3d
       -0.12992507 -0.11352947 -0.07372353 0.059539214
0003e0 b2 89 42 3d ae 3e a1 3d bf 6f e0 3d f2 ea c1 3d
       0.047494598 0.07873283 0.10958814 0.094686404
0003f0 be 08 0d 3e ce 61 f5 3d e9 85 7a 3e 78 2b 87 3e
       0.13772866 0.119815454 0.24465145 0.26400352

layer2.layers.0.spline_weight f4 [1, 224, 8]
000000 a8 4c 03 3f f0 5f 04 3f b8 e7 75 be 34 e9 a4 be
       0.51288843 0.5170889 -0.24014175 -0.3220917
000010 c6 6b e7 bd c9 40 62 3d 43 46 ea 3b 48 15 d3 3d
       -0.11299853 0.055237565 0.007149489 0.103067935
000020 e3 e4 f3 be 6e d1 f3 be f3 8d b3 3c 2b ce 3d 3d
       -0.47635564 -0.4762072 0.021918273 0.046339195
000030 bb 0b ac 3a 45 46 d0 bd 25 ea 4f 3d 9b 51 6e 3e
       0.0013126055 -0.10169653 0.050760407 0.23273318
000040 ea a3 d4 be e8 1b ab be e1 91 a8 3c 22 1d 9c 3c
       -0.41531307 -0.33419728 0.020577373 0.01905686
000050 ff 07 a3 bb f9 56 bb bc 9f 3d 18 bd a4 cb 37 bd
       -0.0049753184 -0.02286862 -0.03716814 -0.04487194
000060 37 51 dc be 70 27 58 3d 09 d5 eb 3d 90 2c 7c 3d
       -0.43030712 0.052771986 0.115152426 0.061565936
000070 9c f4 ca ba 76 e0 fa bc 59 d3 2e be a7 d5 9f be
       -0.0015484276 -0.03062461 -0.1707281 -0.3121769
000080 9a 5a e3 3d 19 54 3d be 71 05 81 be 22 70 1e be
       0.11101265 -0.18489112 -0.25199464 -0.15472463
000090 3b 1f af 3c 08 8e 5f 3d f6 53 73 3e 05 99 d8 3e
       0.021377197 0.05457881 0.23762497 0.42304245
0000a0 6b 7f 80 3e 6a 2e 81 3e 58 a7 28 3e 23 2b 1c bc
       0.25097212 0.25230724 0.16470087 -0.009531769
0000b0 e5 1d 8f bc 92 e8 a8 bd 27 e3 80 be 9b 63 e6 be
       -0.01747031 -0.08247484 -0.25173303 -0.44997868
0000c0 33 85 9f be 84 f1 3a be 2f c6 a5 bd 4e ed 39 ba
       -0.3115631 -0.18256193 -0.08094441 -0.0007092551
0000d0 83 6e 81 3c 11 86 81 3d e8 b1 81 3e b4 91 d6 3e
       0.015799766 0.06324399 0.25331044 0.41908038
0000e0 eb e7 c1 be 58 f0 87 be 89 fa c4 bd 13 3f a0 bc
       -0.37872252 -0.26550555 -0.09618098 -0.019561326
0000f0 f4 d1 d2 3c 6e 3d c6 3d ac ee 59 3e 8a a6 b2 3e
       0.02573488 0.096796855 0.21282452 0.34892684
000100 c3 d3 bd be 44 c9 83 be f1 5c f1 bd 86 3e cb 3c
       -0.37075624 -0.2573949 -0.11785305 0.024810087
000110 e2 66 cc 3c 5c 9d f2 3d f6 e7 57 3e 03 c2 9e 3e
       0.024951402 0.1184642 0.2108458 0.31007394
000120 c0 00 90 3e 2b ee cf 3d f9 7c 87 3c b4 53 32 b9
       0.28125572 0.10152849 0.016539084 -0.00017006585
000130 dc 5f 04 bc a1 4e 08 bd 24 8b 09 be 5d 40 9c be
       -0.008079495 -0.03327811 -0.13431984 -0.30517855
000140 bc 62 8b 3e 16 0d ff 3d 98 43 0d 3c 70 de 2a 3c
       0.27223766 0.12453668 0.008622073 0.01042901
000150 f2 0f 09 bd 68 b5 91 bd eb 75 49 be 11 4a 95 be
       -0.033462472 -0.071146786 -0.19673888 -0.2915807
000160 fa 12 b3 3e b8 25 67 3e 50 ea 9d 3d 25 43 81 ba
       0.34975415 0.22572982 0.07710707 -0.000986193
000170 f0 6e 79 bd c1 82 8d bd 70 fc 44 be 47 92 86 be
       -0.060896814 -0.06909705 -0.19236922 -0.26283476
000180 57 89 78 be 15 a2 cd bd 38 4d 03 bd 88 1f a9 3c
       -0.24271141 -0.1004068 -0.032056063 0.020644918
000190 79 8b ab 3c cf e9 bc 3d 4b 18 3f 3e 67 37 7b 3e
       0.02094053 0.09224283 0.18661611 0.24532853
0001a0 de 38 89 3e ad 06 f7 3d 13 12 8d 3c 71 76 96 bc
       0.268012 0.1206182 0.017220533 -0.018367024
0001b0 14 68 0a bd 13 b7 85 bd 27 f3 1b be f6 bc 5c be
       -0.033790663 -0.06529059 -0.15229474 -0.21556458
0001c0 17 92 8d 3e 58 7f 3a 3e a5 3f ef 3d 0e ac 36 bd
       0.2765052 0.1821264 0.11682061 -0.044597678
0001d0 34 50 83 bd 27 7c 68 bd fd 3c 32 be 2c 4d 5e be
       -0.06411782 -0.056759026 -0.17406078 -0.21709126
0001e0 42 4d 8c be 8b 18 0c be 36 2b 18 bd 31 66 1d 3d
       -0.27402693 -0.13681237 -0.037150584 0.038427535
0001f0 35 2d d7 3c cc 10 9b 3d 6c b8 2b 3e 20 00 6e 3e
       0.026266674 0.07571563 0.1676957 0.23242235
000200 5d 3a 91 3e ff 97 15 3e 59 c7 57 3d 40 c9 fa bc
       0.2836484 0.14608763 0.052680347 -0.030613542
000210 78 55 55 3c 06 86 9d bd 35 b9 37 be bb 56 88 be
       0.013020866 -0.076915786 -0.17941745 -0.2662867
000220 8a a5 82 be 54 67 bc bd 80 7e 0e 3c 43 1c 52 bc
       -0.2551692 -0.09199396 0.008697152 -0.012824121
000230 bb b9 8f 3a 0f 27 76 3d ab a4 69 3e 79 d1 9e 3e
       0.0010965386 0.060095843 0.22816722 0.3101919
000240 85 a3 72 be eb a9 cd bd 45 f4 6a bc b0 50 10 3c
       -0.2369519 -0.10042175 -0.014340465 0.0088083
000250 2c 02 0c bb 1f f5 9e 3d 5d 2b 83 3e 33 85 b1 3e
       -0.00213636 0.07761597 0.2561902 0.34671935
000260 75 8f 78 3e 82 a8 e3 3d 2b af c2 ba d6 cd af 3a
       0.24273475 0.11116125 -0.001485323 0.0013412784
000270 e5 ca c3 3c de 0d 8e bd 93 fc 6d be ed 86 af be
       0.023900459 -0.06936239 -0.2324088 -0.34282628
000280 8c 31 93 be d1 2a 3d be 0f dc 42 bd b7 ca 76 bc
       -0.2874874 -0.18473364 -0.047573145 -0.015062979
000290 3c 1a ea bc 8f e5 8c 3d 0f 92 35 3e 19 b0 96 3e
       -0.028576963 0.06879722 0.17731498 0.29431227
0002a0 ac 3a 56 be 52 00 ae bd 88 d6 33 3b 99 ce 0f 3d
       -0.20920819 -0.08496155 0.0027441103 0.035109136
0002b0 a1 bd 42 bb b5 ff 0e 3d 3d a6 e0 3d 83 3d 30 3e
       -0.0029715078 0.03491183 0.109692074 0.17210965
0002c0 1d 0c 45 3e 9f 20 a6 3d 8c cb a7 39 31 2a f4 bd
       0.19242902 0.08111691 0.00032004376 -0.1192211
0002d0 2c 03 2c bd 99 0d bd 3c 96 2a 95 bc cf dd 33 bd
       -0.041995212 0.023077773 -0.018208783 -0.043912705
0002e0 09 b2 69 be cf f1 c2 bd c5 7d 15 3d 40 d1 93 3d
       -0.22821821 -0.095187776 0.036496896 0.07217646
0002f0 dc e2 ba 3c e5 ad fc 3b c8 38 3a bd 62 d9 85 bd
       0.022813253 0.0077111595 -0.045464307 -0.06535603
000300 d6 19 45 3e b2 5c 9a 3d b0 ff 55 bd 68 e0 77 bd
       0.19248137 0.075372115 -0.052245796 -0.060516745
000310 e4 26 46 bd 60 dd 82 3c 71 07 00 3e c0 b5 10 3e
       -0.048376933 0.0159747 0.12502839 0.14131832
000320 48 60 10 be c8 3c 57 bd ff f9 d0 3d 8c 09 de 3d
       -0.14099228 -0.0525482 0.10203933 0.10841665
000330 97 61 79 3d 0a 2a 94 bd 37 fb 38 be e0 1f 4d be
       0.060884085 -0.07234581 -0.18064581 -0.2003169
000340 ba 1c 22 3e 44 bd 9d 3d 93 22 06 be fa e3 f5 bd
       0.15831271 0.07702115 -0.13099127 -0.12006374
000350 09 f6 98 bd 56 ee ad 3d ba 9e 69 3e 3d a8 84 3e
       -0.074688025 0.084927246 0.22814456 0.25909606
000360 d4 07 3f 3e 55 cf b5 3d a7 80 11 be 44 92 37 be
       0.1865533 0.08877436 -0.14209233 -0.1792689
000370 61 57 ab bd 49 72 f5 3d 12 6c 77 3e 63 82 90 3e
       -0.083662756 0.11984689 0.2416232 0.28224477
000380 c8 41 31 be a4 6f 96 bd e9 e3 03 3e 1e cd e2 3d
       -0.1731025 -0.073455125 0.1287991 0.11074279
000390 65 a1 de 3d d8 a4 bd bd 06 9f 9a be 13 fd ad be
       0.10870627 -0.09259957 -0.3019945 -0.33982143
0003a0 84 6a 27 be 35 71 85 bd 29 15 2c 3e 1b f1 37 3e
       -0.16349226 -0.06515733 0.16804947 0.17963068
0003b0 4f 4e 29 3d 3e 04 ff bd 07 71 ac be f7 d3 c5 be
       0.041334447 -0.12451981 -0.33679983 -0.3863828
0003c0 c4 40 67 be 44 84 01 be 79 07 5b 3e bb a2 66 3e
       -0.225833 -0.12648112 0.2138957 0.22523014
0003d0 e6 bc 37 3e a1 67 09 be 5a 1d bf be 1d e5 d6 be
       0.17943153 -0.13418438 -0.3732708 -0.41971675
0003e0 0e 7e 15 be 8a ee 8c bd 9f 88 80 3e cf ee 63 3e
       -0.14598867 -0.06881435 0.25104234 0.22259067
0003f0 c3 38 89 3d b5 20 39 be 6f d5 dd be bc ba ec be
       0.067002796 -0.18078883 -0.433269 -0.46236217
