SpectralKAN/log/SpectralKAN_farmland.pth (torch, 33026 bytes, 12 tensors)

layer1.layers.0.base_weight f4 [16, 25]
0	0x3d2163a4	0.039401665
1	0x3df1f2a4	0.11813858
2	0xbe392aec	-0.1808278
3	0xbde23e3d	-0.11047027
4	0xbe196f37	-0.14983831
5	0x3dcdff9f	0.100585215
6	0xbceb292c	-0.028706156
7	0x3d431c5b	0.047634464
8	0x3ca1bba8	0.019742802
9	0xbd6d13ea	-0.05788032
10	0xbd9130f0	-0.07089412
11	0xbc044ef2	-0.008075463
12	0xbe86dbef	-0.2633967
13	0xbe517388	-0.20454228
14	0xbdb51495	-0.08841816
15	0x3df67c2e	0.12035404
16	0x3dc60768	0.096693814
17	0x3dcb5316	0.09927957
18	0xbdf2c29c	-0.11853525
19	0xbd902331	-0.07037962
20	0x3d1ac0da	0.037781574
21	0x3e46e0e0	0.1942172
22	0xbc23e55d	-0.010003415
23	0x3e5df399	0.21674956
24	0xbde09ff1	-0.109680064
25	0xbc56d7c6	-0.013112968
26	0x3e2e667d	0.17031284
27	0xbe666be2	-0.22502092
28	0xbdff9390	-0.12479317
29	0xbe1440f0	-0.14477897
30	0xbdce152f	-0.10062634
31	0x3dedad37	0.11605304
32	0xbe7db60f	-0.24776481
33	0xbdcde4e3	-0.10053422
34	0xbe8e38d4	-0.2777773
35	0xbe8f65ad	-0.2800726
36	0xbe1c86f2	-0.15285853
37	0x3d93920d	0.07205591
38	0xbaa35efe	-0.0012464223
39	0x3d6ff695	0.05858477
40	0x3d1c0c1a	0.03809748
41	0xbe402f3b	-0.18768017
42	0xbd909ef7	-0.0706157
43	0xbe73c67c	-0.23806185
44	0xbe36b961	-0.17844154
45	0xbe68adcc	-0.22722548
46	0x3d8c4b68	0.0685032
47	0x3d8a0321	0.06738878
48	0xbdea0ef2	-0.11428632
49	0xbde7eb6b	-0.11324199
50	0x3ec0b615	0.37638918
51	0x3eb8f035	0.36120763
52	0x3e69b516	0.22822985
53	0x3e5c8e48	0.21538651
54	0x3e7cf55b	0.2470297
55	0xbc421bf0	-0.011847481
56	0x3e4920f9	0.19641484
57	0xbde49dbd	-0.11162899
58	0x3dfd255d	0.12360642
59	0x3e192958	0.14957178
60	0x3e76fb98	0.24119413
61	0x3e39c337	0.18140875
62	0x3d3a7b3a	0.045527674
63	0x3e1b7397	0.15180813
64	0x3e922157	0.2854106
65	0x3e934f5f	0.28771493
66	0x3e18a7b6	0.14907727
67	0x3e4e3f3c	0.2014131
68	0x3e0b7064	0.13617092
69	0x3ea9240a	0.33035308
70	0x3c53324b	0.012890409
71	0xbdaf0a0b	-0.085468374
72	0x3e1c7a7b	0.15281098
73	0x3ed233d8	0.4105518
74	0x3ebdaa93	0.370442
75	0x3e7e2ac3	0.24821
76	0x3d6eeb35	0.05832978
77	0xbe370526	-0.17873058
78	0x3d732309	0.059359584
79	0xbe4f2b0a	-0.20231262
80	0xbdd3555c	-0.103190154
81	0x3e284095	0.16430886
82	0x3d528fe6	0.051406763
83	0xbe253215	-0.16132386
84	0xbd9e243c	-0.07721755
85	0xbc4b909b	-0.012424613
86	0x3c99b218	0.01876168
87	0xbe2cdd78	-0.16881359
88	0x3c197f47	0.009368724
89	0xbdfbf80c	-0.123031706
90	0x3e59e2aa	0.21277872
91	0x3e0ecb67	0.1394478
92	0x3e039172	0.12848452
93	0x3dd07e1c	0.101803035
94	0xbe2da560	-0.16957617
95	0xbe196cdb	-0.14982931
96	0x3e2bd2bd	0.16779609
97	0x3dc0e841	0.09419299
98	0xbdad0b9b	-0.08449479
99	0xbe3dd5ba	-0.18538561
100	0x3ddff2c5	0.109349765
101	0x3e071bfe	0.13194272
102	0xbd87f349	-0.066382
103	0xbda12781	-0.07868863
104	0xbdc66c37	-0.09688609
105	0xbdd6a194	-0.10480037
106	0xbdfc578a	-0.12321384
107	0xbcf4b926	-0.029873442
108	0xbc53d330	-0.012928769
109	0x3e4411fc	0.19147485
110	0xbdd247f2	-0.10267629
111	0x3da76274	0.08173075
112	0x3b2829c8	0.002565967
113	0x3e983f0e	0.29735607
114	0x3e2d4628	0.16921294
115	0xbe95795a	-0.29194146
116	0xbd6034fe	-0.054738037
117	0x3d895709	0.06706054
118	0x3c02aad0	0.007975295
119	0x3c438783	0.011934164
120	0x3e007659	0.12545146
121	0xbd34350c	-0.043995902
122	0xbe158854	-0.14602786
123	0x3cd75c82	0.026289228
124	0xbdd04c29	-0.101707764
125	0xbe4d2a89	-0.20035757
126	0xbd49e3ea	-0.04928962
127	0xbdb35973	-0.087572955
128	0xbdd6de2e	-0.10491596
129	0xbdd8a1bb	-0.10577723
130	0xbe2651a8	-0.16242087
131	0x3d836bc9	0.06417043
132	0xbcbb2e23	-0.022849148
133	0xbccfb8dd	-0.025356704
134	0x3e96049c	0.29300392
135	0xbd76057b	-0.06006382
136	0xbd899a9d	-0.06718943
137	0x3d889f10	0.06670964
138	0x3dfd6fdb	0.1237485
139	0x3e1a8c0c	0.15092486
140	0x3d13d940	0.036095858
141	0x3d95a50e	0.07306872
142	0x3e4ea447	0.20179854
143	0xbd8b23d6	-0.067939445
144	0xbe554078	-0.20825374
145	0xbdccae07	-0.099941306
146	0x3d1124cb	0.03543548
147	0xbd957155	-0.07297007
148	0xbe3acc13	-0.1824191
149	0xbda7220d	-0.081607915
150	0xbf16329c	-0.58670974
151	0xbed81682	-0.42204672
152	0xbeb2bc01	-0.3490906
153	0xbe47fbb9	-0.19529618
154	0xbe268be1	-0.16264297
155	0xbee9d045	-0.4566671
156	0xbe154f5c	-0.14581054
157	0xbeb5f027	-0.35534784
158	0xbecf0185	-0.40430847
159	0xbed1b6b5	-0.40959707
160	0xbeb1cc91	-0.34726384
161	0xbe7b09d7	-0.24515472
162	0xbf00a142	-0.5024606
163	0xbeb79720	-0.35857487
164	0xbe67503f	-0.22589205
165	0xbef0b1c5	-0.47010627
166	0xbeb1f732	-0.34758908
167	0xbde8858b	-0.11353596
168	0xbe4256d4	-0.18978435
169	0xbe7d77e0	-0.2475276
170	0xbe3c0764	-0.18362194
171	0xbe7040e0	-0.23462248
172	0x3dbc3be9	0.091911145
173	0xbe1c6df5	-0.1527632
174	0xbf03344f	-0.5125169
175	0x3eeef532	0.46671444
176	0x3e15b53c	0.14619917
177	0x3d8dfe86	0.06933312
178	0x3e9bf113	0.30457363
179	0xbe50dda0	-0.20397043
180	0x3e616960	0.22012854
181	0x3cd9b74f	0.026576666
182	0x3dd72796	0.10505597
183	0x3e9d2527	0.30692407
184	0x3e162b92	0.14665058
185	0x3e69a85d	0.22818132
186	0x3d47077b	0.04859112
187	0xbb8c3853	-0.0042791753
188	0xbe1485d2	-0.14504173
189	0x3e57c337	0.21070562
190	0x3f11f0cc	0.5700805
191	0x3e929e4d	0.286364
192	0xbdd8e819	-0.10591144
193	0xbd24d1f2	-0.040239282
194	0xbd2d6cbc	-0.042340025
195	0x3dcf20dc	0.10113689
196	0xbcd24f51	-0.025672587
197	0x3db84ac3	0.08998635
198	0xbcf16543	-0.02946723
199	0x3e27d83c	0.1639108
200	0xbc19cedd	-0.009387699
201	0x3e167025	0.14691217
202	0xbdcb05bf	-0.09913205
203	0xbe120242	-0.14258674
204	0xbbb6fab6	-0.0055840863
205	0x3e01a00d	0.12658711
206	0xbca88910	-0.020573169
207	0x3ea7778d	0.32708398
208	0x3d9e66e9	0.07734472
209	0x3e2ece1f	0.17070816
210	0x3d33a6b1	0.04386014
211	0xbd072df5	-0.033002812
212	0x3e13c662	0.14431146
213	0x3d882e7b	0.066494904
214	0x3d0e1692	0.034689493
215	0xbd4151ad	-0.047197033
216	0xbe02bd6e	-0.12767574
217	0xbd437f2a	-0.047728695
218	0x3e3c0047	0.18359481
219	0xbe2038ce	-0.1564667
220	0x3d8cea4b	0.06880625
221	0x3e66d128	0.22540724
222	0x3d966cde	0.073449835
223	0xbd25c77f	-0.040473457
224	0xbd997e8d	-0.07494841
225	0x3dc06a78	0.09395307
226	0xbd37d266	-0.044878386
227	0x3d9c0c9a	0.07619591
228	0xbc896e12	-0.016776118
229	0x3e1e147e	0.15437505
230	0x3b97757d	0.00462216
231	0x3e91e6d7	0.2849643
232	0x3e901af8	0.28145576
233	0x3e627d23	0.22118048
234	0x3ea66b1d	0.32503596
235	0xbdad5ac5	-0.084645785
236	0x3df2fe0b	0.11864861
237	0x3d67d4c6	0.0565994
238	0x3e056513	0.13026838
239	0x3e1ed89f	0.15512322
240	0xbcea1b3a	-0.028577436
241	0x3e4b4c15	0.19853242
242	0x3d50c892	0.05097253
243	0x3da7a296	0.08185308
244	0x3e3055cd	0.1722023
245	0xbd99fce7	-0.075189404
246	0x3e5f8699	0.21828689
247	0xbe067e16	-0.13134035
248	0xbcfaa3ca	-0.030595679
249	0x3e0aece5	0.1356693
250	0xbdfe9679	-0.12431044
251	0x3caef020	0.021354735
252	0x3e085f08	0.13317502
253	0xbcd70dc0	-0.026251674
254	0xbe432a37	-0.19059072
255	0xbda85d4a	-0.082209185

layer1.layers.0.spline_weight f4 [1, 25, 8]
0	0x3e06adfa	0.13152304
1	0xbf0dc980	-0.5538559
2	0xbefd3aa5	-0.49458805
3	0x3e6ac0a2	0.22925046
4	0xbdc99ed1	-0.09844745
5	0xbeb1d5ff	-0.3473358
6	0x3f08071c	0.5313585
7	0xba58ede9	-0.00082751975
8	0xbe903274	-0.28163493
9	0x3ee35183	0.44398126
10	0x3e9036e5	0.2816688
11	0xbdb7c14b	-0.089724146
12	0x3d14cce7	0.036328223
13	0x3e64d13a	0.22345439
14	0x3c9e7bf4	0.019346215
15	0xbb2262fa	-0.0024778233
16	0xbe70bcd0	-0.23509526
17	0x3dd235b2	0.10264148
18	0x3dcc05d6	0.099620506
19	0xbda0b9fc	-0.07847974
20	0x3db01da5	0.08599404
21	0x3daf2b11	0.08553136
22	0xbea1afa7	-0.31579325
23	0xbb530456	-0.003219863
24	0xbc8054f1	-0.015665503
25	0x3e038280	0.1284275
26	0xbe2cd2d2	-0.16877297
27	0x3dbf42f0	0.09338939
28	0xbd95d78e	-0.073165044
29	0xbdcd8e81	-0.10036946
30	0x3ecb95b6	0.39762658
31	0xbb0c8c57	-0.0021445954
32	0x3cb983bd	0.022645826
33	0xbdc4ee8c	-0.09615812
34	0x3e8f21b8	0.27955413
35	0xbd94ddf6	-0.07268898
36	0xbd1415e9	-0.036153708
37	0x3e30b491	0.1725638
38	0xbee892d3	-0.45424518
39	0xba71d424	-0.0009225032
40	0x3b89751b	0.0041948683
41	0xbe8804f2	-0.26566273
42	0xbd88adfa	-0.066738084
43	0x3dfae9b3	0.12251606
44	0xbe4278e2	-0.18991426
45	0x3ca0d095	0.01963071
46	0x3edad730	0.427423
47	0x3c002888	0.007822163
48	0xbe5257dd	-0.2054133
49	0x3b268de9	0.0025414175
50	0x3e4c8733	0.1997345
51	0xbd1ffe22	-0.03906072
52	0xbccbc47c	-0.024873964
53	0x3da5738b	0.08078679
54	0xbe0bef12	-0.13665417
55	0x3e912530	0.28348684
56	0x3da7d085	0.08194069
57	0x3e241fc8	0.16027749
58	0x3d14f3ad	0.0363652
59	0x3cbfafc5	0.023399243
60	0xbd7ef072	-0.062241025
61	0x3e120a47	0.14261733
62	0x3ed31974	0.41230357
63	0xbba54f84	-0.0050448794
64	0xbda7eed0	-0.08199847
65	0xbe3d976d	-0.18514796
66	0x3e14ccc1	0.14531232
67	0xbe021d69	-0.12706532
68	0x3daf27e9	0.08552534
69	0x3e7db35a	0.24775448
70	0xbea7d7fa	-0.32781965
71	0xbb05e05f	-0.0020427925
72	0xbda8c955	-0.08241526
73	0x3e4c3621	0.19942524
74	0x3ec50667	0.38481447
75	0xbd709e21	-0.058744553
76	0xbdd80e54	-0.10549608
77	0x3eaadff2	0.33373982
78	0xbe8721ea	-0.26393062
79	0xbb8bc32f	-0.004265211
80	0xbe21e7e4	-0.15811116
81	0xbea60683	-0.32426843
82	0xbec31d85	-0.3810846
83	0xbd5c86fe	-0.053839676
84	0x3ebf321b	0.37342915
85	0xbde8cf06	-0.113676116
86	0xbf0bc278	-0.5459361
87	0x3ad9954d	0.0016600281
88	0x3e2cb60e	0.16866323
89	0xbd0e486a	-0.03473703
90	0xbe02e5e1	-0.12783004
91	0x3d889797	0.066695385
92	0xbcc109fa	-0.023564328
93	0xbd9b14b4	-0.07572308
94	0x3eada3db	0.33914074
95	0xbe964fe8	-0.2935784
96	0x3e2ab58e	0.1667082
97	0x3dc97ef1	0.09838665
98	0xbe78bed6	-0.24291548
99	0x3d2f08a8	0.042732865
100	0x3ce913bb	0.028451791
101	0xbe86d586	-0.2633478
102	0x3e8895dc	0.26676834
103	0xbaf1e6bf	-0.0018455609
104	0x3cbe4a4f	0.023228792
105	0x3d83f298	0.064427555
106	0x3e1998b6	0.14999661
107	0xbd2a4adc	-0.041575298
108	0x3cd56112	0.026047263
109	0xbc27a01b	-0.010231043
110	0xbe99b55a	-0.30021173
111	0xbb64af59	-0.0034894554
112	0xbdcd0003	-0.10009768
113	0x3c8511a5	0.016243765
114	0xbe9382c5	-0.28810707
115	0xbdb900d2	-0.090333596
116	0x3e4a381e	0.1974797
117	0x3db7c40e	0.08972941
118	0x3e964a25	0.29353443
119	0x3b10ea22	0.002211221
120	0x3cbdc375	0.02316449
121	0x3de05ac0	0.10954809
122	0xbe47541c	-0.19465679
123	0x3e390977	0.18070017
124	0xbe256867	-0.16153108
125	0xbe9f67ff	-0.3113403
126	0x3ea37ba3	0.31930265
127	0xb9aaa2be	-0.0003254618
128	0x3e2571e5	0.16156729
129	0xbe0a5e58	-0.13512552
130	0xbeaa667a	-0.33281308
131	0xbe2c8511	-0.16847636
132	0x3e90997c	0.282421
133	0x3e56b172	0.20966128
134	0xbe8ecd3c	-0.27890956
135	0xb9425aae	-0.00018535063
136	0xbe9e7036	-0.30944985
137	0x3eb34488	0.35013223
138	0x3e8723d2	0.26394516
139	0xbda475db	-0.08030292
140	0x3d8ff29d	0.07028697
141	0x3e922a86	0.28548068
142	0xbd7ff5d4	-0.0624903
143	0xbbcd5df0	-0.0062673017
144	0xbe446874	-0.1918047
145	0x3e15208f	0.14563201
146	0x3ddc7a7e	0.10765551
147	0xbda7a102	-0.08185007
148	0x3d4742dd	0.04864775
149	0x3c602458	0.01368054
150	0xbe946865	-0.28985897
151	0xbbf3d981	-0.0074417
152	0x3be3a0fa	0.00694668
153	0xbe9bc152	-0.3042093
154	0xbe928eb3	-0.28624496
155	0x3df55f9a	0.11981125
156	0xbd06bb9f	-0.032893773
157	0xbe642a59	-0.2228178
158	0x3ee2153d	0.4415683
159	0x3b2058b2	0.002446693
160	0xbe07a0b7	-0.13244902
161	0x3ea34392	0.3188749
162	0x3eb79f0c	0.3586353
163	0xbddff668	-0.1093567
164	0x3d00a4be	0.03140711
165	0x3dcce736	0.100050375
166	0xbed4b7cf	-0.41546485
167	0x3d91cd32	0.07119216
168	0x3e75dc10	0.24009728
169	0xbbccdebc	-0.006252138
170	0xbe0dc7ea	-0.13845792
171	0x3dcd812d	0.10034404
172	0xbd9a13d2	-0.07523312
173	0xbe0a81e3	-0.1352611
174	0x3e9134cf	0.28360602
175	0x3ccc8e2d	0.024970138
176	0xbe0d3597	-0.13789974
177	0x3e5a70a6	0.21332034
178	0x3e6df38a	0.23237434
179	0xbdadd827	-0.084884934
180	0x3c076d51	0.008265809
181	0x3e525bd1	0.20542838
182	0xbf018224	-0.50589204
183	0xbc3dafb4	-0.011577535
184	0x3da431d3	0.08017316
185	0xbea4bd74	-0.3217579
186	0xbe8955b6	-0.26823205
187	0x3de266b3	0.110547446
188	0xbcf76337	-0.030198677
189	0xbeccff95	-0.40038744
190	0x3deaadd0	0.11458933
191	0x3b12ca41	0.0022398385
192	0x3e953730	0.29143667
193	0xbe2b81f9	-0.167488
194	0xbe91d33c	-0.28481472
195	0x3d6cca73	0.057810258
196	0x3c6aae01	0.014323712
197	0xbd5ac1d5	-0.05340751
198	0x3f095870	0.5365057
199	0xbe38bb79	-0.18040265

layer1.layers.0.spline_scaler f4 [16, 25]
0	0xbf5a68c2	-0.853161
1	0x3e15c14b	0.14624517
2	0x3eb4d16b	0.35316023
3	0xbe9513ce	-0.29116672
4	0x3e82aa37	0.2552049
5	0xbeb17295	-0.34657732
6	0xbd0a4184	-0.033753887
7	0xbdb3a140	-0.0877099
8	0x3ebb4f82	0.36584097
9	0x3ee05a2c	0.43818796
10	0xbe06f7c9	-0.1318046
11	0xbdf62fec	-0.12020859
12	0xbe82423c	-0.25441158
13	0x3dc5fb1e	0.096670374
14	0xbe29735b	-0.16547911
15	0xbe5e39ae	-0.2170169
16	0xbdab67e4	-0.08369425
17	0x3e5de69d	0.21670003
18	0x3e8c3a1e	0.2738809
19	0xbe673775	-0.22579749
20	0x3f11f52f	0.57014745
21	0xbcf80df2	-0.030280087
22	0x3e2da351	0.16956832
23	0xbef57bab	-0.47945914
24	0xbe5e3aca	-0.21702114
25	0xbf021c6d	-0.50824624
26	0x3ea7fccd	0.3281006
27	0xbcb8043e	-0.02246296
28	0xbd34c4ba	-0.044132926
29	0x3ec5cec8	0.38634324
30	0xbec47118	-0.38367534
31	0xbe2739c7	-0.16330634
32	0xbe7488c7	-0.23880301
33	0x3e730f23	0.23736243
34	0x3ec5bf01	0.38622287
35	0xbdd30d6b	-0.10305294
36	0x3d1a993a	0.037743784
37	0xbd7e5524	-0.062092915
38	0x3e1d459f	0.1535859
39	0x3dc4bb7c	0.09606072
40	0xbec9a253	-0.39381656
41	0xbea86f39	-0.32897356
42	0x3d821633	0.063518904
43	0x3e9d3c93	0.30710277
44	0xbe6b8412	-0.229996
45	0x3efdff0f	0.49608657
46	0xbe88fa4f	-0.2675347
47	0x3ed5573f	0.41668126
48	0xbe252d5b	-0.16130583
49	0xbd209c66	-0.039211653
50	0xbe2fbb1d	-0.17161222
51	0xbe59c0a0	-0.21264887
52	0xbd74daae	-0.05977886
53	0x3d6aaf12	0.057295866
54	0xbd970778	-0.073744714
55	0xbe5f83da	-0.21827641
56	0x3d905169	0.07046778
57	0xbe81a132	-0.25318295
58	0x3e23afce	0.15985033
59	0x3dd4547a	0.10367675
60	0x3e65d2ca	0.22443691
61	0xbd95d451	-0.07315887
62	0xbd5c86e8	-0.053839594
63	0x3af45389	0.0018640618
64	0x3eb061d1	0.34449628
65	0xbe68de64	-0.22741085
66	0x3e90b785	0.28265014
67	0x3e86cef5	0.2632977
68	0x3e35372c	0.17696828
69	0xbd5b6bcf	-0.05356961
70	0x3d284516	0.04108151
71	0x3e114ab3	0.14188652
72	0x3e0ca827	0.1373602
73	0xbe989408	-0.2980044
74	0xbc1bda1d	-0.0095124515
75	0xbf54e5cc	-0.8316314
76	0x3f03852b	0.51375073
77	0x3e057c63	0.13035731
78	0xbeac745a	-0.3368252
79	0x3e43ab56	0.19108328
80	0xbe7bf8e0	-0.24606657
81	0x3d1dc8f4	0.038521722
82	0x3cdb0092	0.02673367
83	0x3e7cf61e	0.24703261
84	0x3efebf75	0.49755445
85	0x3d490a76	0.049082242
86	0xbd9df17e	-0.077120766
87	0xbeb0601d	-0.3444833
88	0xbe33bfef	-0.17553686
89	0x3d70d9f3	0.058801603
90	0xbf0bed6f	-0.5465917
91	0x3c3333be	0.010937629
92	0x3ea4655c	0.3210858
93	0x3dfd26d1	0.12360919
94	0xbee67b33	-0.4501587
95	0x3f1b6283	0.6069719
96	0xbe9574a6	-0.29190558
97	0x3ecdf69a	0.40227205
98	0xbf0079ba	-0.5018574
99	0xbe7cc249	-0.24683489
100	0x3f5bf628	0.8592248
101	0xbee9f5d4	-0.45695364
102	0xbc93826b	-0.018006524
103	0x3d6f7c77	0.05846831
104	0xbeda2aa2	-0.4261065
105	0x3eb184b1	0.34671548
106	0xbc8e6c8a	-0.01738574
107	0x3e80f53e	0.25187105
108	0xbebaefd6	-0.36511105
109	0xbecc5433	-0.3990799
110	0xbd78108c	-0.060562655
111	0x3c9c1fb7	0.019058092
112	0x3eba88be	0.3643245
113	0xbe1888d5	-0.14895947
114	0x3ddd61b4	0.10809651
115	0x3f2ff828	0.6873803
116	0x3da534dd	0.080667235
117	0xbda41a54	-0.08012834
118	0xbe53976c	-0.20663232
119	0x3f04bb8b	0.5184867
120	0xbf2c8542	-0.67390835
121	0x3e5c671c	0.21523708
122	0xbea5f12f	-0.3241057
123	0x3ee00b8a	0.43758804
124	0x3e9f7bb3	0.31149063
125	0x3f6d24be	0.9263419
126	0xbedb17cc	-0.42791593
127	0xbe5e47ab	-0.21707027
128	0x3ebb21eb	0.36549315
129	0xbeb94fd2	-0.3619371
130	0x3f202a5c	0.62564635
131	0xbe49fc40	-0.19725132
132	0x3d2ef8fe	0.042717926
133	0xbea168fa	-0.31525403
134	0xbed43708	-0.41448236
135	0x3dde7bd2	0.108634606
136	0x3d439c2f	0.04775637
137	0x3dbf8987	0.09352403
138	0x3dc09f97	0.09405439
139	0x3e1e5e22	0.15465596
140	0x3f1bc47f	0.60846704
141	0xbd93b1fc	-0.07211682
142	0xbe175ed8	-0.14782274
143	0x3cd764bc	0.026293151
144	0x3ecdb314	0.40175688
145	0xbf29c635	-0.66318065
146	0x3ed71996	0.42011708
147	0xbee6370b	-0.4496387
148	0x3ee78661	0.4521971
149	0x3e8f8556	0.28031415
150	0xbe80a441	-0.25125316
151	0x3ec4c241	0.38429454
152	0xbe10f0a5	-0.14154299
153	0xbd09bc78	-0.033627003
154	0x3e2d8dc1	0.16948606
155	0x3ddd87f1	0.108169444
156	0x3e504dba	0.2034215
157	0x3ea465d0	0.32108927
158	0xbe35bbbc	-0.17747396
159	0x3e8aa95a	0.2708233
160	0xbeb73a28	-0.35786557
161	0xbe850612	-0.25981194
162	0xbe511f1c	-0.20422024
163	0xbe83bc9f	-0.25729844
164	0xbbd3bc08	-0.006461624
165	0x3e6bcbae	0.23026916
166	0xbe59fb7f	-0.21287344
167	0xbe2138d0	-0.15744328
168	0x3e3f498f	0.18680404
169	0x3d7db29c	0.061937913
170	0x3eca5a1e	0.3952188
171	0xbe525fc6	-0.20544347
172	0xbce7a192	-0.028275285
173	0xbe7f8590	-0.24953294
174	0xbea04564	-0.3130294
175	0xbeca4527	-0.39505884
176	0x3eca7b9c	0.3954743
177	0x3db1960b	0.086711966
178	0xbdc9ba80	-0.09850025
179	0x3bb21475	0.0054345676
180	0xbeb5803d	-0.354494
181	0x3d97e9eb	0.07417663
182	0xbe2e6896	-0.17032084
183	0x3eb35a4c	0.3502983
184	0x3d946578	0.07245916
185	0x3ee2a141	0.44263652
186	0x3d3c020b	0.045900386
187	0xbebbe10f	-0.36695144
188	0x3df838d5	0.12120215
189	0x3d2fa66a	0.042883314
190	0xbf3d77b5	-0.74010783
191	0x3e56a142	0.20959952
192	0x3ef506c9	0.4785674
193	0x3ce0a424	0.027422018
194	0xbe6c640d	-0.23085041
195	0x3ee78cdb	0.45224652
196	0xbda93fbf	-0.08264112
197	0x3dea916d	0.11453519
198	0xbeb787c9	-0.35845783
199	0xbe2b903e	-0.16754243
200	0x3f025b54	0.50920606
201	0xbeb289fd	-0.34870902
202	0xbc31d7c1	-0.010854662
203	0x3ebc8fac	0.36828363
204	0xbe7d21c6	-0.24719915
205	0x3ebbffad	0.36718503
206	0xbe11510f	-0.14191078
207	0x3e61a025	0.22033747
208	0xbeb64ce4	-0.35605538
209	0xbf1936de	-0.59849346
210	0x3d674491	0.056461874
211	0x3e2e8a6f	0.17044996
212	0x3d69cdf8	0.057081193
213	0x3e2b313b	0.16717999
214	0x3e271026	0.16314754
215	0x3e954309	0.29152706
216	0x3db2c2b3	0.08728542
217	0xbd8c05e8	-0.06837064
218	0xbe94b57c	-0.29044712
219	0x3e956a25	0.29182544
220	0xbeb6e467	-0.35721132
221	0xbc3a64b6	-0.01137655
222	0xbe0cfe9a	-0.13768998
223	0x3eed9376	0.46401566
224	0x3eb3b7d0	0.35101175
225	0x3f280d1a	0.6564499
226	0xbe4c3a5e	-0.1994414
227	0xbe99c4a5	-0.3003284
228	0x3ef9b309	0.48769405
229	0xbf0ea38d	-0.5571831
230	0x3e495a6a	0.19663396
231	0x3cd31509	0.025766866
232	0x3df18192	0.11792292
233	0xbebc84da	-0.36820108
234	0xbf2d85d4	-0.6778233
235	0xbddbd19e	-0.10733341
236	0x3d1ea64e	0.03873282
237	0x3e2fd7fa	0.17172232
238	0xba25ba73	-0.00063220336
239	0x3e1861a3	0.14880995
240	0x3f196777	0.599235
241	0x3e1db32b	0.15400378
242	0xbdb269fe	-0.08711623
243	0xbe02e4d7	-0.12782608
244	0x3eb1502d	0.34631482
245	0xbf21bb6f	-0.63176626
246	0x3e1b3fa9	0.15161003
247	0xbeee9f61	-0.4660597
248	0x3ece7e06	0.40330523
249	0x3e69878e	0.22805616
250	0xbf03003c	-0.5117223
251	0x3e651896	0.2237266
252	0x3e9196a4	0.28435242
253	0xbe8536c0	-0.26018333
254	0x3e2bccc5	0.16777332
255	0xbdbc29a7	-0.09187632

layer1.layers.0.grid f4 [25, 12]
0	0xc00ccccd	-2.2
1	0xbfe66666	-1.8
2	0xbfb33333	-1.4
3	0xbf800000	-1.0
4	0xbf19999a	-0.6
5	0xbe4ccccc	-0.19999999
6	0x3e4cccd0	0.20000005
7	0x3f19999a	0.6
8	0x3f800000	1.0
9	0x3fb33334	1.4000001
10	0x3fe66666	1.8
11	0x400ccccd	2.2
12	0xc00ccccd	-2.2
13	0xbfe66666	-1.8
14	0xbfb33333	-1.4
15	0xbf800000	-1.0
16	0xbf19999a	-0.6
17	0xbe4ccccc	-0.19999999
18	0x3e4cccd0	0.20000005
19	0x3f19999a	0.6
20	0x3f800000	1.0
21	0x3fb33334	1.4000001
22	0x3fe66666	1.8
23	0x400ccccd	2.2
24	0xc00ccccd	-2.2
25	0xbfe66666	-1.8
26	0xbfb33333	-1.4
27	0xbf800000	-1.0
28	0xbf19999a	-0.6
29	0xbe4ccccc	-0.19999999
30	0x3e4cccd0	0.20000005
31	0x3f19999a	0.6
32	0x3f800000	1.0
33	0x3fb33334	1.4000001
34	0x3fe66666	1.8
35	0x400ccccd	2.2
36	0xc00ccccd	-2.2
37	0xbfe66666	-1.8
38	0xbfb33333	-1.4
39	0xbf800000	-1.0
40	0xbf19999a	-0.6
41	0xbe4ccccc	-0.19999999
42	0x3e4cccd0	0.20000005
43	0x3f19999a	0.6
44	0x3f800000	1.0
45	0x3fb33334	1.4000001
46	0x3fe66666	1.8
47	0x400ccccd	2.2
48	0xc00ccccd	-2.2
49	0xbfe66666	-1.8
50	0xbfb33333	-1.4
51	0xbf800000	-1.0
52	0xbf19999a	-0.6
53	0xbe4ccccc	-0.19999999
54	0x3e4cccd0	0.20000005
55	0x3f19999a	0.6
56	0x3f800000	1.0
57	0x3fb33334	1.4000001
58	0x3fe66666	1.8
59	0x400ccccd	2.2
60	0xc00ccccd	-2.2
61	0xbfe66666	-1.8
62	0xbfb33333	-1.4
63	0xbf800000	-1.0
64	0xbf19999a	-0.6
65	0xbe4ccccc	-0.19999999
66	0x3e4cccd0	0.20000005
67	0x3f19999a	0.6
68	0x3f800000	1.0
69	0x3fb33334	1.4000001
70	0x3fe66666	1.8
71	0x400ccccd	2.2
72	0xc00ccccd	-2.2
73	0xbfe66666	-1.8
74	0xbfb33333	-1.4
75	0xbf800000	-1.0
76	0xbf19999a	-0.6
77	0xbe4ccccc	-0.19999999
78	0x3e4cccd0	0.20000005
79	0x3f19999a	0.6
80	0x3f800000	1.0
81	0x3fb33334	1.4000001
82	0x3fe66666	1.8
83	0x400ccccd	2.2
84	0xc00ccccd	-2.2
85	0xbfe66666	-1.8
86	0xbfb33333	-1.4
87	0xbf800000	-1.0
88	0xbf19999a	-0.6
89	0xbe4ccccc	-0.19999999
90	0x3e4cccd0	0.20000005
91	0x3f19999a	0.6
92	0x3f800000	1.0
93	0x3fb33334	1.4000001
94	0x3fe66666	1.8
95	0x400ccccd	2.2
96	0xc00ccccd	-2.2
97	0xbfe66666	-1.8
98	0xbfb33333	-1.4
99	0xbf800000	-1.0
100	0xbf19999a	-0.6
101	0xbe4ccccc	-0.19999999
102	0x3e4cccd0	0.20000005
103	0x3f19999a	0.6
104	0x3f800000	1.0
105	0x3fb33334	1.4000001
106	0x3fe66666	1.8
107	0x400ccccd	2.2
108	0xc00ccccd	-2.2
109	0xbfe66666	-1.8
110	0xbfb33333	-1.4
111	0xbf800000	-1.0
112	0xbf19999a	-0.6
113	0xbe4ccccc	-0.19999999
114	0x3e4cccd0	0.20000005
115	0x3f19999a	0.6
116	0x3f800000	1.0
117	0x3fb33334	1.4000001
118	0x3fe66666	1.8
119	0x400ccccd	2.2
120	0xc00ccccd	-2.2
121	0xbfe66666	-1.8
122	0xbfb33333	-1.4
123	0xbf800000	-1.0
124	0xbf19999a	-0.6
125	0xbe4ccccc	-0.19999999
126	0x3e4cccd0	0.20000005
127	0x3f19999a	0.6
128	0x3f800000	1.0
129	0x3fb33334	1.4000001
130	0x3fe66666	1.8
131	0x400ccccd	2.2
132	0xc00ccccd	-2.2
133	0xbfe66666	-1.8
134	0xbfb33333	-1.4
135	0xbf800000	-1.0
136	0xbf19999a	-0.6
137	0xbe4ccccc	-0.19999999
138	0x3e4cccd0	0.20000005
139	0x3f19999a	0.6
140	0x3f800000	1.0
141	0x3fb33334	1.4000001
142	0x3fe66666	1.8
143	0x400ccccd	2.2
144	0xc00ccccd	-2.2
145	0xbfe66666	-1.8
146	0xbfb33333	-1.4
147	0xbf800000	-1.0
148	0xbf19999a	-0.6
149	0xbe4ccccc	-0.19999999
150	0x3e4cccd0	0.20000005
151	0x3f19999a	0.6
152	0x3f800000	1.0
153	0x3fb33334	1.4000001
154	0x3fe66666	1.8
155	0x400ccccd	2.2
156	0xc00ccccd	-2.2
157	0xbfe66666	-1.8
158	0xbfb33333	-1.4
159	0xbf800000	-1.0
160	0xbf19999a	-0.6
161	0xbe4ccccc	-0.19999999
162	0x3e4cccd0	0.20000005
163	0x3f19999a	0.6
164	0x3f800000	1.0
165	0x3fb33334	1.4000001
166	0x3fe66666	1.8
167	0x400ccccd	2.2
168	0xc00ccccd	-2.2
169	0xbfe66666	-1.8
170	0xbfb33333	-1.4
171	0xbf800000	-1.0
172	0xbf19999a	-0.6
173	0xbe4ccccc	-0.19999999
174	0x3e4cccd0	0.20000005
175	0x3f19999a	0.6
176	0x3f800000	1.0
177	0x3fb33334	1.4000001
178	0x3fe66666	1.8
179	0x400ccccd	2.2
180	0xc00ccccd	-2.2
181	0xbfe66666	-1.8
182	0xbfb33333	-1.4
183	0xbf800000	-1.0
184	0xbf19999a	-0.6
185	0xbe4ccccc	-0.19999999
186	0x3e4cccd0	0.20000005
187	0x3f19999a	0.6
188	0x3f800000	1.0
189	0x3fb33334	1.4000001
190	0x3fe66666	1.8
191	0x400ccccd	2.2
192	0xc00ccccd	-2.2
193	0xbfe66666	-1.8
194	0xbfb33333	-1.4
195	0xbf800000	-1.0
196	0xbf19999a	-0.6
197	0xbe4ccccc	-0.19999999
198	0x3e4cccd0	0.20000005
199	0x3f19999a	0.6
200	0x3f800000	1.0
201	0x3fb33334	1.4000001
202	0x3fe66666	1.8
203	0x400ccccd	2.2
204	0xc00ccccd	-2.2
205	0xbfe66666	-1.8
206	0xbfb33333	-1.4
207	0xbf800000	-1.0
208	0xbf19999a	-0.6
209	0xbe4ccccc	-0.19999999
210	0x3e4cccd0	0.20000005
211	0x3f19999a	0.6
212	0x3f800000	1.0
213	0x3fb33334	1.4000001
214	0x3fe66666	1.8
215	0x400ccccd	2.2
216	0xc00ccccd	-2.2
217	0xbfe66666	-1.8
218	0xbfb33333	-1.4
219	0xbf800000	-1.0
220	0xbf19999a	-0.6
221	0xbe4ccccc	-0.19999999
222	0x3e4cccd0	0.20000005
223	0x3f19999a	0.6
224	0x3f800000	1.0
225	0x3fb33334	1.4000001
226	0x3fe66666	1.8
227	0x400ccccd	2.2
228	0xc00ccccd	-2.2
229	0xbfe66666	-1.8
230	0xbfb33333	-1.4
231	0xbf800000	-1.0
232	0xbf19999a	-0.6
233	0xbe4ccccc	-0.19999999
234	0x3e4cccd0	0.20000005
235	0x3f19999a	0.6
236	0x3f800000	1.0
237	0x3fb33334	1.4000001
238	0x3fe66666	1.8
239	0x400ccccd	2.2
240	0xc00ccccd	-2.2
241	0xbfe66666	-1.8
242	0xbfb33333	-1.4
243	0xbf800000	-1.0
244	0xbf19999a	-0.6
245	0xbe4ccccc	-0.19999999
246	0x3e4cccd0	0.20000005
247	0x3f19999a	0.6
248	0x3f800000	1.0
249	0x3fb33334	1.4000001
250	0x3fe66666	1.8
251	0x400ccccd	2.2
252	0xc00ccccd	-2.2
253	0xbfe66666	-1.8
254	0xbfb33333	-1.4
255	0xbf800000	-1.0

layer1.layers.1.base_weight f4 [1, 16]
0	0xbece7335	-0.4032227
1	0xbeb96451	-0.36209348
2	0xbe88f16f	-0.267467
3	0xbeefea71	-0.46858552
4	0x3efd2e9a	0.49449617
5	0x3ef36934	0.475412
6	0xbd1351ff	-0.03596687
7	0xbe99cf5d	-0.30041018
8	0x3ebb5461	0.36587813
9	0x3ea82479	0.32840326
10	0xbeda6a57	-0.42659256
11	0x3ebb1905	0.36542526
12	0x3f0bb906	0.545792
13	0xbeb0422d	-0.34425488
14	0xbefa8fe0	-0.48937893
15	0x3c1e757d	0.009671566

layer1.layers.1.spline_weight f4 [1, 16, 8]
0	0x3b3907a4	0.0028233314
1	0xbe438e20	-0.19097185
2	0x3eded1ed	0.43519536
3	0x3d1b9ae8	0.037989527
4	0xbe012e64	-0.12615353
5	0x3e13072b	0.14358203
6	0x3c2530cf	0.010082438
7	0x3ef88e6a	0.48546153
8	0xbae207bd	-0.0017244738
9	0xbf212d17	-0.62959427
10	0x3e30fc2c	0.17283696
11	0x3d62efcf	0.05540448
12	0xbd851d2d	-0.064997055
13	0xbe061a5f	-0.13095997
14	0xbe4109ae	-0.18851349
15	0x3e9650db	0.29358563
16	0xbe3e449e	-0.18580863
17	0x3e1722cf	0.14759372
18	0x3e2e6672	0.17031267
19	0xbe0dc28a	-0.13843742
20	0x3cc5e091	0.024154933
21	0x3e89ef25	0.26940265
22	0x3e5a80ec	0.21338242
23	0xbed82446	-0.42215174
24	0x3b775a63	0.0037743084
25	0xbf2526c6	-0.6451229
26	0xbee9e802	-0.4568482
27	0xbd6699e5	-0.05629911
28	0x3e226ace	0.15861055
29	0xbe2faea4	-0.17156464
30	0xbed4c2fe	-0.41555017
31	0xbed63692	-0.4183851
32	0xbeef00bf	-0.46680257
33	0xbf006f16	-0.50169504
34	0xbd8c3fa0	-0.06848073
35	0x3e22f291	0.15912844
36	0xbd8641ad	-0.065554954
37	0xbefc5af7	-0.4928815
38	0xbee5f9c6	-0.44917125
39	0xbaad0c72	-0.0013202562
40	0xbf151f76	-0.5825113
41	0xbf37c6b1	-0.71787554
42	0xbe2e29e0	-0.17008162
43	0x3ddd8c6f	0.10817801
44	0xbcb51b01	-0.022107603
45	0xbec9373f	-0.39299962
46	0xbde01614	-0.10941711
47	0xbaebc1de	-0.0017986854
48	0x3ecea191	0.4035764
49	0xbe2e3ed4	-0.17016155
50	0xbe801e63	-0.25023183
51	0x3c518d7b	0.012790079
52	0x3e5eaef3	0.21746425
53	0xbe97970c	-0.29607427
54	0xbe5e8d04	-0.2173348
55	0x3e35864b	0.1772701
56	0x3b0d1299	0.0021525978
57	0xbf2218c8	-0.63319063
58	0xbd522b68	-0.051310927
59	0x3df26b3e	0.11836861
60	0xbe0fe6c2	-0.14052871
61	0xbe31f9a0	-0.1738038
62	0x3f1c7ac6	0.6112484
63	0x3eee1e61	0.46507552
64	0x3efbe232	0.4919601
65	0xbdea8bce	-0.11452447
66	0xbd0e3e82	-0.03472758
67	0xbdc365d9	-0.0954091
68	0x3d275f28	0.040862232
69	0x3e929e41	0.28636363
70	0xbc9ec7c6	-0.019382369
71	0xbb0cc839	-0.0021481647
72	0xbd36364d	-0.04448538
73	0x3ec57d68	0.3857224
74	0xbcfe64c6	-0.031053912
75	0x3ddd47e8	0.10804731
76	0xbd4386de	-0.04773604
77	0xbee2cb08	-0.44295526
78	0xbeda1189	-0.42591503
79	0xba8f054a	-0.001091161
80	0x3ac0cbf0	0.0014709216
81	0xbcaf9e1a	-0.021437693
82	0x3e74d567	0.23909532
83	0x3d3858d6	0.045006596
84	0xbd9d3d2a	-0.07677682
85	0xbdc90349	-0.0981508
86	0xbd9fb980	-0.07799053
87	0x3ed981e2	0.42481905
88	0xbf0ae7d9	-0.5426002
89	0xbeeed4fb	-0.46646866
90	0xbdadd39e	-0.084876284
91	0x3dd38bbd	0.10329387
92	0xbd662728	-0.056189686
93	0xbe9a9824	-0.301942
94	0x3de19019	0.110138126
95	0xbaa8bd97	-0.0012873885
96	0x3ebc2880	0.3674965
97	0xbe36aff9	-0.17840566
98	0x3d827b43	0.063711666
99	0xbda2ba3a	-0.07945676
100	0x3c414d2c	0.011798184
101	0x3ec25ba2	0.37960535
102	0x3ebd1d4a	0.36936408
103	0x3b74e702	0.0037369137
104	0xbe0da3e6	-0.13832054
105	0x3e766325	0.24061258
106	0x3e3591ad	0.17731352
107	0xbe2361af	-0.15955232
108	0xbd3e6470	-0.046482503
109	0x3e6d47ba	0.23171893
110	0x3ef1f777	0.47259113
111	0xbe031b42	-0.12803367
112	0xba8759cb	-0.0010326443
113	0x3c113c33	0.00886445
114	0xbda311c2	-0.079623714
115	0xbcf9e8c2	-0.030506495
116	0x3d1953c8	0.037433416
117	0x3deeb8cb	0.1165634
118	0xbe483fd7	-0.19555603
119	0xbec4b936	-0.38422555
120	0xbeed6411	-0.46365407
121	0x3e442622	0.19155172
122	0x3e8c4cc3	0.27402315
123	0xbe59e38b	-0.21278207
124	0x3c99fdd8	0.0187978
125	0x3e9071d9	0.2821186
126	0x3e3106d8	0.17287767
127	0xbede9d14	-0.43479216

layer1.layers.1.spline_scaler f4 [1, 16]
0	0x3f0001f2	0.5000297
1	0x3ec579a4	0.38569367
2	0xbeb1fcac	-0.34763086
3	0xbf1af7e4	-0.605345
4	0xbee4d68d	-0.4469494
5	0xbf17c119	-0.5927902
6	0x3eeaee4d	0.45884934
7	0x3f12730c	0.572068
8	0x3e892460	0.26785564
9	0xbe8878a8	-0.26654553
10	0x3ea5eca9	0.3240712
11	0xbecc3625	-0.3988506
12	0x3f08218b	0.5317618
13	0xbf06963d	-0.52572995
14	0xbea21d92	-0.31663185
15	0xbedf52d8	-0.43617892

layer1.layers.1.grid f4 [16, 12]
0	0xc00ccccd	-2.2
1	0xbfe66666	-1.8
2	0xbfb33333	-1.4
3	0xbf800000	-1.0
4	0xbf19999a	-0.6
5	0xbe4ccccc	-0.19999999
6	0x3e4cccd0	0.20000005
7	0x3f19999a	0.6
8	0x3f800000	1.0
9	0x3fb33334	1.4000001
10	0x3fe66666	1.8
11	0x400ccccd	2.2
12	0xc00ccccd	-2.2
13	0xbfe66666	-1.8
14	0xbfb33333	-1.4
15	0xbf800000	-1.0
16	0xbf19999a	-0.6
17	0xbe4ccccc	-0.19999999
18	0x3e4cccd0	0.20000005
19	0x3f19999a	0.6
20	0x3f800000	1.0
21	0x3fb33334	1.4000001
22	0x3fe66666	1.8
23	0x400ccccd	2.2
24	0xc00ccccd	-2.2
25	0xbfe66666	-1.8
26	0xbfb33333	-1.4
27	0xbf800000	-1.0
28	0xbf19999a	-0.6
29	0xbe4ccccc	-0.19999999
30	0x3e4cccd0	0.20000005
31	0x3f19999a	0.6
32	0x3f800000	1.0
33	0x3fb33334	1.4000001
34	0x3fe66666	1.8
35	0x400ccccd	2.2
36	0xc00ccccd	-2.2
37	0xbfe66666	-1.8
38	0xbfb33333	-1.4
39	0xbf800000	-1.0
40	0xbf19999a	-0.6
41	0xbe4ccccc	-0.19999999
42	0x3e4cccd0	0.20000005
43	0x3f19999a	0.6
44	0x3f800000	1.0
45	0x3fb33334	1.4000001
46	0x3fe66666	1.8
47	0x400ccccd	2.2
48	0xc00ccccd	-2.2
49	0xbfe66666	-1.8
50	0xbfb33333	-1.4
51	0xbf800000	-1.0
52	0xbf19999a	-0.6
53	0xbe4ccccc	-0.19999999
54	0x3e4cccd0	0.20000005
55	0x3f19999a	0.6
56	0x3f800000	1.0
57	0x3fb33334	1.4000001
58	0x3fe66666	1.8
59	0x400ccccd	2.2
60	0xc00ccccd	-2.2
61	0xbfe66666	-1.8
62	0xbfb33333	-1.4
63	0xbf800000	-1.0
64	0xbf19999a	-0.6
65	0xbe4ccccc	-0.19999999
66	0x3e4cccd0	0.20000005
67	0x3f19999a	0.6
68	0x3f800000	1.0
69	0x3fb33334	1.4000001
70	0x3fe66666	1.8
71	0x400ccccd	2.2
72	0xc00ccccd	-2.2
73	0xbfe66666	-1.8
74	0xbfb33333	-1.4
75	0xbf800000	-1.0
76	0xbf19999a	-0.6
77	0xbe4ccccc	-0.19999999
78	0x3e4cccd0	0.20000005
79	0x3f19999a	0.6
80	0x3f800000	1.0
81	0x3fb33334	1.4000001
82	0x3fe66666	1.8
83	0x400ccccd	2.2
84	0xc00ccccd	-2.2
85	0xbfe66666	-1.8
86	0xbfb33333	-1.4
87	0xbf800000	-1.0
88	0xbf19999a	-0.6
89	0xbe4ccccc	-0.19999999
90	0x3e4cccd0	0.20000005
91	0x3f19999a	0.6
92	0x3f800000	1.0
93	0x3fb33334	1.4000001
94	0x3fe66666	1.8
95	0x400ccccd	2.2
96	0xc00ccccd	-2.2
97	0xbfe66666	-1.8
98	0xbfb33333	-1.4
99	0xbf800000	-1.0
100	0xbf19999a	-0.6
101	0xbe4ccccc	-0.19999999
102	0x3e4cccd0	0.20000005
103	0x3f19999a	0.6
104	0x3f800000	1.0
105	0x3fb33334	1.4000001
106	0x3fe66666	1.8
107	0x400ccccd	2.2
108	0xc00ccccd	-2.2
109	0xbfe66666	-1.8
110	0xbfb33333	-1.4
111	0xbf800000	-1.0
112	0xbf19999a	-0.6
113	0xbe4ccccc	-0.19999999
114	0x3e4cccd0	0.20000005
115	0x3f19999a	0.6
116	0x3f800000	1.0
117	0x3fb33334	1.4000001
118	0x3fe66666	1.8
119	0x400ccccd	2.2
120	0xc00ccccd	-2.2
121	0xbfe66666	-1.8
122	0xbfb33333	-1.4
123	0xbf800000	-1.0
124	0xbf19999a	-0.6
125	0xbe4ccccc	-0.19999999
126	0x3e4cccd0	0.20000005
127	0x3f19999a	0.6
128	0x3f800000	1.0
129	0x3fb33334	1.4000001
130	0x3fe66666	1.8
131	0x400ccccd	2.2
132	0xc00ccccd	-2.2
133	0xbfe66666	-1.8
134	0xbfb33333	-1.4
135	0xbf800000	-1.0
136	0xbf19999a	-0.6
137	0xbe4ccccc	-0.19999999
138	0x3e4cccd0	0.20000005
139	0x3f19999a	0.6
140	0x3f800000	1.0
141	0x3fb33334	1.4000001
142	0x3fe66666	1.8
143	0x400ccccd	2.2
144	0xc00ccccd	-2.2
145	0xbfe66666	-1.8
146	0xbfb33333	-1.4
147	0xbf800000	-1.0
148	0xbf19999a	-0.6
149	0xbe4ccccc	-0.19999999
150	0x3e4cccd0	0.20000005
151	0x3f19999a	0.6
152	0x3f800000	1.0
153	0x3fb33334	1.4000001
154	0x3fe66666	1.8
155	0x400ccccd	2.2
156	0xc00ccccd	-2.2
157	0xbfe66666	-1.8
158	0xbfb33333	-1.4
159	0xbf800000	-1.0
160	0xbf19999a	-0.6
161	0xbe4ccccc	-0.19999999
162	0x3e4cccd0	0.20000005
163	0x3f19999a	0.6
164	0x3f800000	1.0
165	0x3fb33334	1.4000001
166	0x3fe66666	1.8
167	0x400ccccd	2.2
168	0xc00ccccd	-2.2
169	0xbfe66666	-1.8
170	0xbfb33333	-1.4
171	0xbf800000	-1.0
172	0xbf19999a	-0.6
173	0xbe4ccccc	-0.19999999
174	0x3e4cccd0	0.20000005
175	0x3f19999a	0.6
176	0x3f800000	1.0
177	0x3fb33334	1.4000001
178	0x3fe66666	1.8
179	0x400ccccd	2.2
180	0xc00ccccd	-2.2
181	0xbfe66666	-1.8
182	0xbfb33333	-1.4
183	0xbf800000	-1.0
184	0xbf19999a	-0.6
185	0xbe4ccccc	-0.19999999
186	0x3e4cccd0	0.20000005
187	0x3f19999a	0.6
188	0x3f800000	1.0
189	0x3fb33334	1.4000001
190	0x3fe66666	1.8
191	0x400ccccd	2.2

layer2.layers.0.base_weight f4 [2, 224]
0	0xbe9fee8c	-0.31236684
1	0xbe8b8fa5	-0.2725803
2	0xbdf886b7	-0.1213507
3	0xbdeded4c	-0.116175264
4	0xbd541461	-0.051777247
5	0xbd89a12d	-0.06720195
6	0xbc2993fd	-0.010350225
7	0x3cd96937	0.026539428
8	0x3ca6fedc	0.020385198
9	0xbbbd61f4	-0.005779499
10	0x3c17c31c	0.009262826
11	0xbca8f3ca	-0.02062406
12	0x3bafb1a8	0.0053617544
13	0x3d9f9524	0.07792118
14	0x3bff0f98	0.0077838413
15	0x3d9fa3b8	0.07794899
16	0x3bfbff91	0.007690378
17	0x3c995d56	0.018721264
18	0x3d14add0	0.036298573
19	0xbcc02b84	-0.02345825
20	0x3d24a6a4	0.040197983
21	0x3d1d77e8	0.03844443
22	0x3d1b1aca	0.037867345
23	0x3cfbd949	0.030743258
24	0x3dbe3243	0.092869304
25	0x3da6c522	0.08143069
26	0xbc96aa75	-0.018391827
27	0x3d59c7fb	0.05316923
28	0xbd1f53c9	-0.038898263
29	0xbd686c3e	-0.056743853
30	0x3b698f4c	0.003563839
31	0xbd04df6d	-0.032439638
32	0xbd4ce845	-0.050026197
33	0xbdc83325	-0.0977538
34	0xbd894322	-0.06702258
35	0xbc08183b	-0.008306558
36	0xbd14cb3c	-0.036326632
37	0x3c90a4a9	0.017656641
38	0x3e5b3655	0.21407445
39	0x3ec8f044	0.39245808
40	0x3ec85aed	0.3913187
41	0x3e5294dd	0.205646
42	0x3d416610	0.047216475
43	0xbdb1e77f	-0.086867325
44	0xbded0ada	-0.115743354
45	0xbdac6d2c	-0.084192604
46	0xbe226b6c	-0.1586129
47	0xbdec8442	-0.11548664
48	0xbe1d2cd3	-0.1534913
49	0xbe23d123	-0.15997748
50	0xbdcf4d3e	-0.10122155
51	0xbe4cde80	-0.20006752
52	0xbe5cc12d	-0.21558066
53	0xbe1391eb	-0.14411132
54	0xbe396220	-0.18103838
55	0xbe0fbcb6	-0.14036831
56	0xbe611f4a	-0.21984592
57	0xbe628ee0	-0.22124815
58	0xbe420c24	-0.18949944
59	0xbe3b1032	-0.18267897
60	0xbe02a246	-0.12757215
61	0xbe7a0ee1	-0.24419738
62	0xbdd9a57c	-0.10627267
63	0xbc17cabe	-0.009264646
64	0xbb93a0df	-0.0045052613
65	0x3c1fd71a	0.009755874
66	0x3d787b19	0.06066427
67	0xbd8f63ee	-0.07001482
68	0xbcdf4968	-0.027256683
69	0xbe0aee0d	-0.13567372
70	0xbdbce395	-0.09223095
71	0xbe62f87f	-0.22165106
72	0xbe1d16b1	-0.15340687
73	0xbe8ddd73	-0.27708015
74	0xbe92906a	-0.28625804
75	0xbe7309fc	-0.23734277
76	0xbe3c0cda	-0.18364277
77	0xbe9581a1	-0.29200462
78	0xbe77bcb4	-0.24193078
79	0xbe0ad17c	-0.13556474
80	0xbc90ab55	-0.017659822
81	0x3dcab503	0.098978065
82	0xbd286c44	-0.041118875
83	0x3d68080e	0.056648307
84	0x3d36e99e	0.04465639
85	0x3e2136da	0.1574358
86	0x3e07aec6	0.13250265
87	0x3d7006d9	0.05860028
88	0x3df6ae52	0.12044968
89	0x3dd8e6d8	0.10590905
90	0x3d9bbc84	0.07604316
91	0x3d70467b	0.058660965
92	0x3d885371	0.0665654
93	0x3e0702df	0.13184689
94	0x3cc11c84	0.023573168
95	0x3c8a3809	0.016872423
96	0x3d442304	0.047884956
97	0x3d88989f	0.06669735
98	0x3dc6ee60	0.09713435
99	0x3da4ac0f	0.0804063
100	0x3d89af68	0.06722909
101	0x3d573e10	0.05254942
102	0x3db4acd2	0.08822025
103	0x3dc77e42	0.09740879
104	0x3e21a3a0	0.15785074
105	0x3d6f56eb	0.0584325
106	0x3dab8e57	0.083767585
107	0x3e20d97e	0.15707967
108	0x3e98a5d2	0.2981401
109	0x3edd7cc4	0.4325925
110	0x3e393d76	0.18089852
111	0x3e0c3b01	0.13694383
112	0xbccbabcb	-0.02486219
113	0xbe0eb0a7	-0.13934575
114	0xbe02adbe	-0.1276159
115	0xbdc991a2	-0.098422304
116	0xbe34b20b	-0.17646043
117	0xbe75b1f0	-0.23993659
118	0xbe070b47	-0.13187896
119	0xbe4f7ebf	-0.20263194
120	0xbdb395db	-0.08768817
121	0xbdea128a	-0.11429317
122	0xbd685896	-0.056725107
123	0xbc68711b	-0.014187123
124	0xbafdbd10	-0.0019358713
125	0xbdf73b51	-0.120718606
126	0xbdcf93cd	-0.10135613
127	0xbda0500d	-0.078277685
128	0xbdba1293	-0.09085574
129	0x3c997031	0.018730255
130	0xbd441de2	-0.04788006
131	0xbda17ef7	-0.07885545
132	0xbd6b003a	-0.057373263
133	0xbd7e658a	-0.062108554
134	0x3bea0261	0.007141397
135	0xbd9937d0	-0.074813485
136	0xbd9dd3f6	-0.07706444
137	0xbdae8a7a	-0.08522506
138	0x3b05925c	0.0020381426
139	0xbbea4bcf	-0.0071501504
140	0xbdb434b6	-0.08799116
141	0xbd41090c	-0.04712777
142	0xbcabd7ff	-0.020977018
143	0xbd921913	-0.07133689
144	0xbdced5d8	-0.10099381
145	0xbd8b39dc	-0.06798145
146	0xbdd4211a	-0.10357876
147	0xbd8c7f26	-0.06860189
148	0xbe25d4f4	-0.16194516
149	0xbdda5080	-0.106598854
150	0xbe1d9b02	-0.15391162
151	0xbe5dfe88	-0.21679127
152	0xbd9a04c4	-0.0752044
153	0x3e4330bb	0.19061558
154	0x3e42947d	0.19001956
155	0x3dbfd9c0	0.093677044
156	0x3ea13e9f	0.3149309
157	0x3dff8c57	0.124779396
158	0x3d99d0eb	0.07510551
159	0x3e14121c	0.14460033
160	0x3dc3fd1d	0.09569762
161	0x3e908f3d	0.28234282
162	0xbe256b61	-0.16154243
163	0xbe0a151a	-0.13484612
164	0x3e9c3020	0.30505466
165	0x3da70e59	0.081570335
166	0xbc6130e9	-0.013744571
167	0xbe4ced21	-0.20012332
168	0xbd28fa68	-0.04125443
169	0xbe765499	-0.24055709
170	0xbe0db54c	-0.1383869
171	0xbe500f5c	-0.20318359
172	0xbe15bcce	-0.14622805
173	0xbdca4db8	-0.09878105
174	0xbdd3e527	-0.10346442
175	0xbe2bea22	-0.16788533
176	0xbdc9bf69	-0.09850962
177	0xbe008608	-0.12551129
178	0xbdcb0029	-0.0991214
179	0xbe5d73cd	-0.21626206
180	0xbdde8e38	-0.1086697
181	0xbdd46f67	-0.10372811
182	0xbe625035	-0.22100909
183	0xbe1d6497	-0.15370403
184	0xbdc1b918	-0.09459132
185	0xbe3f0c6e	-0.18657085
186	0xbdfcc850	-0.12342894
187	0xbdcdfb0f	-0.10057651
188	0xbdce5d7a	-0.10076423
189	0xbd162709	-0.03665832
190	0xbd07bc95	-0.03313883
191	0xbc9333ff	-0.01796913
192	0xbd85e26b	-0.065373264
193	0x3cbe596f	0.023236005
194	0xbda86123	-0.08221652
195	0xbd65f1aa	-0.056138672
196	0xbd15475a	-0.036445
197	0xbd2f732f	-0.042834457
198	0x3d1c88ac	0.038216278
199	0x3baf64d3	0.0053525954
200	0x3ca6072a	0.020267088
201	0x3cdf7a50	0.027280003
202	0xbd6ce85d	-0.057838786
203	0xbb268b4f	-0.0025412624
204	0x3c18528a	0.009297023
205	0x3cf6e096	0.030136388
206	0x3d4a2049	0.049347196
207	0xbbd39395	-0.006456802
208	0x3c65b88f	0.014021053
209	0x3dbdb790	0.092635274
210	0x3c96cbd3	0.018407738
211	0x3c00bfea	0.007858256
212	0x3dd182cf	0.10230028
213	0x3dbec45a	0.09314795
214	0x3d025a12	0.03182418
215	0x3d3e55fe	0.046468727
216	0x3c0268e6	0.00795958
217	0x3b6d1512	0.003617589
218	0x3da4ff6b	0.080565296
219	0x3cfc202a	0.030777056
220	0x3de7c3ce	0.11316644
221	0x3b4609e6	0.0030218302
222	0x3d15f2ba	0.036608435
223	0x3d09a919	0.03360853
224	0x3ecd74ff	0.40128323
225	0x3eaaac41	0.33334544
226	0x3e44df27	0.19225751
227	0x3dc5db71	0.09660996
228	0x3d3a43f2	0.045474954
229	0x3c44ea5b	0.012018765
230	0xbcb97ee1	-0.022643508
231	0x3cc44b39	0.02396165
232	0x3d967232	0.07346
233	0xbc4e60c4	-0.012596313
234	0xbc84a64d	-0.01619258
235	0xbd8f066c	-0.06983647
236	0xbc13bc8c	-0.009017121
237	0x3c00b932	0.007856654
238	0xbdcdb9d9	-0.10045213
239	0xbdab02ae	-0.083501205
240	0x3c7ac0d4	0.015304763
241	0xbc9741fa	-0.018464077
242	0xbd1febed	-0.039043356
243	0xbcd447fa	-0.025913227
244	0xbd50ff7d	-0.051024903
245	0xbdbc2c7e	-0.09188174
246	0xbdd9b67a	-0.10630508
247	0xb92386e0	-0.00015595136
248	0xbd452fd1	-0.048141304
249	0xbd6936ec	-0.056937143
250	0xbd34cbf3	-0.044139814
251	0xbd6fec9e	-0.058575265
252	0xbd0866cf	-0.03330117
253	0xbd6b7e3c	-0.057493433
254	0x3d88ee0a	0.06686027
255	0x3d78a50d	0.06070428

layer2.layers.0.spline_weight f4 [1, 224, 8]
0	0x3f3a9e09	0.7289739
1	0x3e8dfe01	0.27732852
2	0xbe8c1c4e	-0.27365345
3	0x3eca37a9	0.3949559
4	0x3eed167b	0.46306214
5	0xbf0baf34	-0.54564214
6	0xbf09a988	-0.5377431
7	0xbe2c9c5b	-0.1685652
8	0xbf305097	-0.6887297
9	0xbf0da969	-0.55336624
10	0x3edac867	0.4273102
11	0xbe5e0922	-0.21683171
12	0xbed993d7	-0.42495605
13	0x3ed4c3c5	0.4155561
14	0x3eb86372	0.3601337
15	0xbd9b5841	-0.075851925
16	0xbeaa6b46	-0.33284968
17	0xbf56e329	-0.8394037
18	0x3eb4d17a	0.35316068
19	0x3d76a5a0	0.060216546
20	0xbe81d948	-0.25361085
21	0x3e1d15e6	0.15340385
22	0x3e371ea1	0.17882778
23	0xbeb476f9	-0.3524702
24	0xbaaacbb5	-0.001303068
25	0xbf2d8a4e	-0.6778916
26	0x3dde37c7	0.108504824
27	0x3e3ea6ea	0.1861836
28	0xbdefd681	-0.11710835
29	0x3c947d69	0.018126206
30	0x3e94d847	0.29071257
31	0xbe183f1b	-0.14867823
32	0x3a0f2d32	0.0005461752
33	0xbf23f83e	-0.6405066
34	0xbd951460	-0.07279277
35	0xbc3c1453	-0.011479455
36	0xbd8db5db	-0.06919452
37	0xbdd60fe3	-0.10452249
38	0x3e074759	0.1321081
39	0xbd88691c	-0.06660673
40	0xba4342fb	-0.00074486405
41	0xbf0da5df	-0.55331224
42	0xbd57f38e	-0.052722506
43	0x380f06f8	3.4100347e-05
44	0xbbe15e5f	-0.006877705
45	0xbd9f6f1c	-0.07784864
46	0x3dd21312	0.102575436
47	0xbd4394fe	-0.047749512
48	0x3b917d36	0.004439975
49	0xbee184bd	-0.44046584
50	0x3d97ae65	0.0740631
51	0x3cb31705	0.021861563
52	0xbc8a2b7a	-0.016866434
53	0xbd22e4c3	-0.039768945
54	0x3e532f5c	0.20623535
55	0x3e369775	0.17831214
56	0xba03e54c	-0.00050314213
57	0xbf005668	-0.50131845
58	0xbd286c68	-0.04111901
59	0x3d202866	0.039101027
60	0xbc7871e6	-0.015163874
61	0xbdf90927	-0.12159949
62	0xbc484374	-0.012223113
63	0xbd4a4a74	-0.04938741
64	0xbc2ed03d	-0.010669765
65	0xbef1e9c4	-0.47248662
66	0x3e0dc3df	0.1384425
67	0x3d58c676	0.052923642
68	0xbd2277d0	-0.039665043
69	0xbc47dbb3	-0.0121983765
70	0x3e8dee11	0.27720693
71	0x3e129f0d	0.14318486
72	0xbbe8dabd	-0.0071061538
73	0xbeee5d5e	-0.4655561
74	0xbd5f0726	-0.054450177
75	0x3cd181e4	0.025574632
76	0xbc3f7aa3	-0.011686954
77	0xbd8cb965	-0.06871299
78	0xbdf8f3f7	-0.121559076
79	0xbe1b6d71	-0.15178467
80	0xbdf9040b	-0.12158974
81	0xbf351863	-0.70740336
82	0xbca3af34	-0.019981004
83	0x3d890d7d	0.06692026
84	0xbd02099b	-0.03174744
85	0xbdd4368e	-0.10361968
86	0xbe10fc02	-0.14158633
87	0xbe1e98b3	-0.15487938
88	0x3e2939eb	0.16526
89	0x3f2fa843	0.6861612
90	0x3b99e192	0.0046960795
91	0xbd713e65	-0.058897395
92	0x3b4e55dd	0.0031484284
93	0x3e063097	0.13104473
94	0x3e1ec26f	0.15503858
95	0x3e279fce	0.16369554
96	0x3ebca91d	0.36847773
97	0x3f3959ec	0.72402835
98	0xbd7969d1	-0.06089193
99	0xbd94b8e6	-0.07261829
100	0x3c92dd01	0.017927648
101	0x3e206feb	0.15667693
102	0x3e49e836	0.19717488
103	0x3e27bbb4	0.16380197
104	0x3efffe87	0.49998876
105	0x3f439ff3	0.7641594
106	0xbe2c75c0	-0.16841793
107	0xbe25cc67	-0.16191255
108	0x3d2bbf0e	0.04193025
109	0x3e49400d	0.1965334
110	0x3e572502	0.21010211
111	0x3e1c7b5f	0.15281437
112	0xbec046d7	-0.37554047
113	0xbf1e4732	-0.61827385
114	0x3e021a8d	0.12705441
115	0x3db49ff1	0.08819569
116	0xbc81bb82	-0.015836481
117	0xbdb3fc00	-0.087882996
118	0xbe4ad2d7	-0.19806992
119	0xbdb94328	-0.09046012
120	0x3f11f84b	0.5701949
121	0x3f1d38d2	0.61414826
122	0xbe23ac97	-0.15983807
123	0xbd98094a	-0.07423647
124	0x3ca8ada2	0.020590607
125	0x3e0e0659	0.13869609
126	0x3e651f4a	0.22375217
127	0x3d71f692	0.05907304
128	0xbf17442b	-0.5908839
129	0xbf2d5cb0	-0.67719555
130	0x3ec42a8f	0.3831372
131	0x3dc224a0	0.09479642
132	0xbd5dbe6e	-0.054136686
133	0xbdd79b54	-0.10527673
134	0xbe160781	-0.146513
135	0xbb8f7a48	-0.0043785907
136	0x3f282781	0.6568528
137	0x3f284d42	0.65742886
138	0xbe73ab49	-0.23795809
139	0xbdbe3100	-0.0928669
140	0x3db30f64	0.0874317
141	0x3da92bbb	0.08260294
142	0x3e2950f2	0.16534784
143	0xbcea7f6b	-0.02862521
144	0x3f2f18bd	0.6839712
145	0x3f2961d4	0.661649
146	0xbec9e357	-0.3943126
147	0xbdff7391	-0.124732144
148	0x3e0482c9	0.12940516
149	0x3dbd0146	0.092287585
150	0x3dd35020	0.10318017
151	0xbd7d3f95	-0.061828215
152	0xbf3b757a	-0.7322613
153	0xbf196aa4	-0.59928346
154	0x3ed90927	0.42389795
155	0x3dd7f155	0.10544077
156	0xbe0d9ab6	-0.13828549
157	0xbd909321	-0.070593126
158	0xbd5f0a57	-0.05445322
159	0x3dfceed4	0.1235024
160	0x3f4b8399	0.7949768
161	0x3ee9eb3a	0.45687276
162	0xbec992c8	-0.39369798
163	0xbdaaa37a	-0.08331962
164	0x3e0f8c9b	0.1401848
165	0x3e0e08b7	0.13870512
166	0x3dd3b4d7	0.10337227
167	0xbe6e2ca0	-0.2325921
168	0x3f497b79	0.7870403
169	0x3e6f1ac7	0.23350058
170	0xbe798cc7	-0.24370109
171	0x3c065d64	0.008200977
172	0x3cd20b20	0.02564007
173	0x3dba05c2	0.090831295
174	0x3ddf5827	0.109054856
175	0xbeab8720	-0.3350153
176	0xbf57a877	-0.8424143
177	0xbdf02e74	-0.1172761
178	0x3eab776e	0.33489555
179	0xbd5938cb	-0.053032678
180	0xba5352ea	-0.00080613664
181	0xbe1a6d70	-0.1508081
182	0xbda3c6b9	-0.07996888
183	0x3ed0b779	0.4076498
184	0x3f5437fa	0.82897913
185	0x3ca93f25	0.020659992
186	0xbe7642bf	-0.24048899
187	0x3d74a71c	0.05972968
188	0xbcd61c4f	-0.026136545
189	0x3e21b249	0.15790667
190	0x3d411c85	0.04714634
191	0xbecf57d2	-0.4049669
192	0xbf4d2928	-0.80140924
193	0x3d84da99	0.06487007
194	0x3e6bdc87	0.23033343
195	0xbdab45c4	-0.08362916
196	0x3d08ea9f	0.033426877
197	0xbe256f9f	-0.16155861
198	0xbaa7ea57	-0.0012810928
199	0x3ece439a	0.4028595
200	0x3f39b5f6	0.72543275
201	0xbe1a31a8	-0.15058005
202	0xbe0b8ab6	-0.13627133
203	0x3dbda82e	0.09260593
204	0xbd4c1f11	-0.049834315
205	0x3e28722a	0.164498
206	0xbd41e510	-0.04733759
207	0xbecee381	-0.40407947
208	0xbf261d30	-0.64888287
209	0x3e565536	0.20930943
210	0x3db5ac7b	0.08870789
211	0xbd936993	-0.07197871
212	0x3d65a1bc	0.056062445
213	0xbe3055ff	-0.17220305
214	0x3dc631c1	0.096774586
215	0x3eb9208e	0.3615765
216	0x3f17fa32	0.5936614
217	0xbe4bb0cb	-0.1989166
218	0xbd7bff85	-0.06152298
219	0x3df935d6	0.121684715
220	0xbd99a826	-0.07502775
221	0x3e331a10	0.17490411
222	0xbdcea5cc	-0.10090217
223	0xbea50b7d	-0.32235327
224	0x3f067e28	0.5253625
225	0xbe511528	-0.20418227
226	0xbd2dda58	-0.042444557
227	0x3d9e0717	0.07716196
228	0xbd5ce55e	-0.05392968
229	0x3e22ac95	0.15886147
230	0xbe16df78	-0.14733684
231	0xbe9d9c27	-0.30783197
232	0x3ef36a61	0.47542098
233	0xbe271ce5	-0.16319616
234	0x3b2fa989	0.0026803932
235	0x3daab7ff	0.08335876
236	0xbd9a038e	-0.07520209
237	0x3e1e986d	0.15487833
238	0xbe19c077	-0.15014826
239	0xbe893822	-0.26800638
240	0xbef0b82c	-0.47015512
241	0x3df13efd	0.11779592
242	0xbcc43968	-0.023953155
243	0xbdeffddf	-0.11718344
244	0x3d8f02ee	0.06982981
245	0xbe32cf29	-0.17461838
246	0x3e446162	0.19177774
247	0x3e839513	0.25699672
248	0x3eb3cae9	0.35115746
249	0xbe02a026	-0.12756404
250	0x3d781ec7	0.060576227
251	0x3d77464c	0.060369775
252	0xbd6eb208	-0.058275253
253	0x3dd1790e	0.102281675
254	0xbe312555	-0.17299397
255	0xbe573dbe	-0.21019647
